…
ode>yolo_model = load_model(\"model_data/\", compile=False)\n</code></pre> <p>This loads the weights of a trained YOLO model. Here's a summary of the layers your model contains:</p> <pre><code>yolo_model.summary()\n</code></pre> <pre>\n<code>Model: \"functional_1\"\n__________________________________________________________________________________________________\nLayer (type)                    Output Shape         Param #     Connected to                     \n==================================================================================================\ninput_1 (InputLayer)            [(None, 608, 608, 3) 0                                            \n__________________________________________________________________________________________________\nconv2d (Conv2D)                 (None, 608, 608, 32) 864         input_1[0][0]                    \n__________________________________________________________________________________________________\nbatch_normalization (BatchNorma (None, 608, 608, 32) 128         conv2d[0][0]                     \n__________________________________________________________________________________________________\nleaky_re_lu (LeakyReLU)         (None, 608, 608, 32) 0           batch_normalization[0][0]        \n__________________________________________________________________________________________________\nmax_pooling2d (MaxPooling2D)    (None, 304, 304, 32) 0           leaky_re_lu[0][0]                \n__________________________________________________________________________________________________\nconv2d_1 (Conv2D)               (None, 304, 304, 64) 18432       max_pooling2d[0][0]              \n__________________________________________________________________________________________________\nbatch_normalization_1 (BatchNor (None, 304, 304, 64) 256         conv2d_1[0][0]                   \n__________________________________________________________________________________________________\nleaky_re_lu_1 (LeakyReLU)       (None, 304, 304, 64) 0           batch_normalization_1[0][0]      \n__________________________________________________________________________________________________\nmax_pooling2d_1 (MaxPooling2D)  (None, 152, 152, 64) 0           leaky_re_lu_1[0][0]              \n__________________________________________________________________________________________________\nconv2d_2 (Conv2D)               (None, 152, 152, 128 73728       max_pooling2d_1[0][0]            \n__________________________________________________________________________________________________\nbatch_normalization_2 (BatchNor (None, 152, 152, 128 512         conv2d_2[0][0]                   \n__________________________________________________________________________________________________\nleaky_re_lu_2 (LeakyReLU)       (None, 152, 152, 128 0           batch_normalization_2[0][0]      \n__________________________________________________________________________________________________\nconv2d_3 (Conv2D)               (None, 152, 152, 64) 8192        leaky_re_lu_2[0][0]              \n__________________________________________________________________________________________________\nbatch_normalization_3 (BatchNor (None, 152, 152, 64) 256         conv2d_3[0][0]                   \n__________________________________________________________________________________________________\nleaky_re_lu_3 (LeakyReLU)       (None, 152, 152, 64) 0           batch_normalization_3[0][0]      \n__________________________________________________________________________________________________\nconv2d_4 (Conv2D)               (None, 152, 152, 128 73728       leaky_re_lu_3[0][0]              \n__________________________________________________________________________________________________\nbatch_normalization_4 (BatchNor (None, 152, 152, 128 512         conv2d_4[0][0]                   \n__________________________________________________________________________________________________\nleaky_re_lu_4 (LeakyReLU)       (None, 152, 152, 128 0           batch_normalization_4[0][0]      \n__________________________________________________________________________________________________\nmax_pooling2d_2 (MaxPooling2D)  (None, 76, 76, 128)  0           leaky_re_lu_4[0][0]              \n__________________________________________________________________________________________________\nconv2d_5 (Conv2D)               (None, 76, 76, 256)  294912      max_pooling2d_2[0][0]            \n__________________________________________________________________________________________________\nbatch_normalization_5 (BatchNor (None, 76, 76, 256)  1024        conv2d_5[0][0]                   \n__________________________________________________________________________________________________\nleaky_re_lu_5 (LeakyReLU)       (None, 76, 76, 256)  0           batch_normalization_5[0][0]      \n__________________________________________________________________________________________________\nconv2d_6 (Conv2D)               (None, 76, 76, 128)  32768       leaky_re_lu_5[0][0]              \n__________________________________________________________________________________________________\nbatch_normalization_6 (BatchNor (None, 76, 76, 128)  512         conv2d_6[0][0]                   \n__________________________________________________________________________________________________\nleaky_re_lu_6 (LeakyReLU)       (None, 76, 76, 128)  0           batch_normalization_6[0][0]      \n__________________________________________________________________________________________________\nconv2d_7 (Conv2D)               (None, 76, 76, 256)  294912      leaky_re_lu_6[0][0]              \n__________________________________________________________________________________________________\nbatch_normalization_7 (BatchNor (None, 76, 76, 256)  1024        conv2d_7[0][0]                   \n__________________________________________________________________________________________________\nleaky_re_lu_7 (LeakyReLU)       (None, 76, 76, 256)  0           batch_normalization_7[0][0]      \n__________________________________________________________________________________________________\nmax_pooling2d_3 (MaxPooling2D)  (None, 38, 38, 256)  0           leaky_re_lu_7[0][0]              \n__________________________________________________________________________________________________\nconv2d_8 (Conv2D)               (None, 38, 38, 512)  1179648     max_pooling2d_3[0][0]            \n__________________________________________________________________________________________________\nbatch_normalization_8 (BatchNor (None, 38, 38, 512)  2048        conv2d_8[0][0]                   \n__________________________________________________________________________________________________\nleaky_re_lu_8 (LeakyReLU)       (None, 38, 38, 512)  0           batch_normalization_8[0][0]      \n__________________________________________________________________________________________________\nconv2d_9 (Conv2D)               (None, 38, 38, 256)  131072      leaky_re_lu_8[0][0]              \n__________________________________________________________________________________________________\nbatch_normalization_9 (BatchNor (None, 38, 38, 256)  1024        conv2d_9[0][0]                   \n__________________________________________________________________________________________________\nleaky_re_lu_9 (LeakyReLU)       (None, 38, 38, 256)  0           batch_normalization_9[0][0]      \n__________________________________________________________________________________________________\nconv2d_10 (Conv2D)              (None, 38, 38, 512)  1179648     leaky_re_lu_9[0][0]              \n__________________________________________________________________________________________________\nbatch_normalization_10 (BatchNo (None, 38, 38, 512)  2048        conv2d_10[0][0]                  \n__________________________________________________________________________________________________\nleaky_re_lu_10 (LeakyReLU)      (None, 38, 38, 512)  0           batch_normalization_10[0][0]     \n__________________________________________________________________________________________________\nconv2d_11 (Conv2D)              (None, 38, 38, 256)  131072      leaky_re_lu_10[0][0]             \n__________________________________________________________________________________________________\nbatch_normalization_11 (BatchNo (None, 38, 38, 256)  1024        conv2d_11[0][0]                  \n__________________________________________________________________________________________________\nleaky_re_lu_11 (LeakyReLU)      (None, 38, 38, 256)  0           batch_normalization_11[0][0]     \n__________________________________________________________________________________________________\nconv2d_12 (Conv2D)              (None, 38, 38, 512)  1179648     leaky_re_lu_11[0][0]             \n__________________________________________________________________________________________________\nbatch_normalization_12 (BatchNo (None, 38, 38, 512)  2048        conv2d_12[0][0]                  \n__________________________________________________________________________________________________\nleaky_re_lu_12 (LeakyReLU)      (None, 38, 38, 512)  0           batch_normalization_12[0][0]     \n__________________________________________________________________________________________________\nmax_pooling2d_4 (MaxPooling2D)  (None, 19, 19, 512)  0           leaky_re_lu_12[0][0]             \n__________________________________________________________________________________________________\nconv2d_13 (Conv2D)              (None, 19, 19, 1024) 4718592     max_pooling2d_4[0][0]            \n__________________________________________________________________________________________________\nbatch_normalization_13 (BatchNo (None, 19, 19, 1024) 4096        conv2d_13[0][0]                  \n__________________________________________________________________________________________________\nleaky_re_lu_13 (LeakyReLU)      (None, 19, 19, 1024) 0           batch_normalization_13[0][0]     \n__________________________________________________________________________________________________\nconv2d_14 (Conv2D)              (None, 19, 19, 512)  524288      leaky_re_lu_13[0][0]             \n__________________________________________________________________________________________________\nbatch_normalization_14 (BatchNo (None, 19, 19, 512)  2048        conv2d_14[0][0]                  \n__________________________________________________________________________________________________\nleaky_re_lu_14 (LeakyReLU)      (None, 19, 19, 512)  0           batch_normalization_14[0][0]     \n__________________________________________________________________________________________________\nconv2d_15 (Conv2D)              (None, 19, 19, 1024) 4718592     leaky_re_lu_14[0][0]             \n__________________________________________________________________________________________________\nbatch_normalization_15 (BatchNo (None, 19, 19, 1024) 4096        conv2d_15[0][0]                  \n__________________________________________________________________________________________________\nleaky_re_lu_15 (LeakyReLU)      (None, 19, 19, 1024) 0           batch_normalization_15[0][0]     \n__________________________________________________________________________________________________\nconv2d_16 (Conv2D)              (None, 19, 19, 512)  524288      leaky_re_lu_15[0][0]             \n__________________________________________________________________________________________________\nbatch_normalization_16 (BatchNo (None, 19, 19, 512)  2048        conv2d_16[0][0]                  \n__________________________________________________________________________________________________\nleaky_re_lu_16 (LeakyReLU)      (None, 19, 19, 512)  0           batch_normalization_16[0][0]     \n__________________________________________________________________________________________________\nconv2d_17 (Conv2D)              (None, 19, 19, 1024) 4718592     leaky_re_lu_16[0][0]             \n__________________________________________________________________________________________________\nbatch_normalization_17 (BatchNo (None, 19, 19, 1024) 4096        conv2d_17[0][0]                  \n__________________________________________________________________________________________________\nleaky_re_lu_17 (LeakyReLU)      (None, 19, 19, 1024) 0           batch_normalization_17[0][0]     \n__________________________________________________________________________________________________\nconv2d_18 (Conv2D)              (None, 19, 19, 1024) 9437184     leaky_re_lu_17[0][0]             \n__________________________________________________________________________________________________\nbatch_normalization_18 (BatchNo (None, 19, 19, 1024) 4096        conv2d_18[0][0]                  \n__________________________________________________________________________________________________\nconv2d_20 (Conv2D)              (None, 38, 38, 64)   32768       leaky_re_lu_12[0][0]             \n__________________________________________________________________________________________________\nleaky_re_lu_18 (LeakyReLU)      (None, 19, 19, 1024) 0           batch_normalization_18[0][0]     \n__________________________________________________________________________________________________\nbatch_normalization_20 (BatchNo (None, 38, 38, 64)   256         conv2d_20[0][0]                  \n__________________________________________________________________________________________________\nconv2d_19 (Conv2D)              (None, 19, 19, 1024) 9437184     leaky_re_lu_18[0][0]             \n__________________________________________________________________________________________________\nleaky_re_lu_20 (LeakyReLU)      (None, 38, 38, 64)   0           batch_normalization_20[0][0]     \n__________________________________________________________________________________________________\nbatch_normalization_19 (BatchNo (None, 19, 19, 1024) 4096        conv2d_19[0][0]                  \n__________________________________________________________________________________________________\nspace_to_depth_x2 (Lambda)      (None, 19, 19, 256)  0           leaky_re_lu_20[0][0]             \n__________________________________________________________________________________________________\nleaky_re_lu_19 (LeakyReLU)      (None, 19, 19, 1024) 0           batch_normalization_19[0][0]     \n__________________________________________________________________________________________________\nconcatenate (Concatenate)       (None, 19, 19, 1280) 0           space_to_depth_x2[0][0]          \n                                                                 leaky_re_lu_19[0][0]             \n__________________________________________________________________________________________________\nconv2d_21 (Conv2D)              (None, 19, 19, 1024) 11796480    concatenate[0][0]                \n__________________________________________________________________________________________________\nbatch_normalization_21 (BatchNo (None, 19, 19, 1024) 4096        conv2d_21[0][0]                  \n__________________________________________________________________________________________________\nleaky_re_lu_21 (LeakyReLU)      (None, 19, 19, 1024) 0           batch_normalization_21[0][0]     \n__________________________________________________________________________________________________\nconv2d_22 (Conv2D)              (None, 19, 19, 425)  435625      leaky_re_lu_21[0][0]             \n==================================================================================================\nTotal params: 50,983,561\nTrainable params: 50,962,889\nNon-trainable params: 20,672\n__________________________________________________________________________________________________\n</code>\n</pre> <p>Note: On some computers, you may see a warning message
…
nary_crossentropy',\n                   metrics=['accuracy'])\n</code></pre> <p>It's time to check your model's parameters with the <code>.summary()</code> method. This will display the types of layers you have, the shape of the outputs, and how many parameters are in each layer. </p> <pre><code>happy_model.summary()\n</code></pre> <pre>\n<code>Model: \"sequential\"\n_________________________________________________________________\nLayer (type)                 Output Shape              Param #   \n=================================================================\nzero_padding2d (ZeroPadding2 (None, 70, 70, 3)         0         \n_________________________________________________________________\nconv2d (Conv2D)              (None, 64, 64, 32)        4736      \n_________________________________________________________________\nbatch_normalization (BatchNo (None, 64, 64, 32)        128       \n_________________________________________________________________\nre_lu (ReLU)                 (None, 64, 64, 32)        0         \n_________________________________________________________________\nmax_pooling2d (MaxPooling2D) (None, 32, 32, 32)        0         \n_________________________________________________________________\nflatten (Flatten)            (None, 32768)             0         \n_________________________________________________________________\ndense (Dense)                (None, 1)                 32769     \n=================================================================\nTotal params: 37,633\nTrainable params: 37,569\nNon-trainable params: 64\n_________________________________________________________________\n</code>\n</pre> <p></p> <pre><code>happy_model.fit(X_train, Y_train, epochs=10, batch_size=16)\n</code></pre> <pre>\n<code>Epoch 1/10\n38/38 [==============================] - 4s 103ms/
…
oling2D', (None, 2, 2, 16), 0, (4, 4), (4, 4), 'same'],\n        ['Flatten', (None, 64), 0],\n        ['Dense', (None, 6), 390, 'softmax']]\n\ncomparator(summary(conv_model), output)\n</code></pre> <pre>\n<code>Model: \"functional_1\"\n_________________________________________________________________\nLayer (type)                 Output Shape              Param #   \n=================================================================\ninput_1 (InputLayer)         [(None, 64, 64, 3)]       0         \n_________________________________________________________________\nconv2d_1 (Conv2D)            (None, 64, 64, 8)         392       \n_________________________________________________________________\nre_lu_1 (ReLU)               (None, 64, 64, 8)         0         \n_________________________________________________________________\nmax_pooling2d_1 (MaxPooling2 (None, 8, 8, 8)           0         \n_________________________________________________________________\nconv2d_2 (Conv2D)            (None, 8, 8, 16)          528       \n_________________________________________________________________\nre_lu_2 (ReLU)               (None, 8, 8, 16)          0         \n_________________________________________________________________\nmax_pooling2d_2 (MaxPooling2 (None, 2, 2, 16)          0         \n_________________________________________________________________\nflatten_1 (Flatten)          (None, 64)                0         \n_________________________________________________________________\ndense_1 (Dense)              (None, 6)                 390       \n=================================================================\nTotal params: 1,310\nTrainable params: 1,310\nNon-trainable params: 0\n_________________________________________________________________\nAll tests passed!\n</code>\n</pre> <p>Both the Sequential and Functional APIs return a TF Keras model object. The only difference is how inputs are handled inside the object model! </p> 
…
del.summary())\n</code></pre> <pre>\n<code>Model: \"functional_1\"\n__________________________________________________________________________________________________\nLayer (type)                    Output Shape         Param #     Connected to                     \n==================================================================================================\ninput_1 (InputLayer)            [(None, 64, 64, 3)]  0                                            \n__________________________________________________________________________________________________\nzero_padding2d (ZeroPadding2D)  (None, 70, 70, 3)    0           input_1[0][0]                    \n__________________________________________________________________________________________________\nconv2d_45 (Conv2D)              (None, 32, 32, 64)   9472        zero_padding2d[0][0]             \n__________________________________________________________________________________________________\nbatch_normalization_45 (BatchNo (None, 32, 32, 64)   256         conv2d_45[0][0]                  \n__________________________________________________________________________________________________\nactivation_36 (Activation)      (None, 32, 32, 64)   0           batch_normalization_45[0][0]     \n__________________________________________________________________________________________________\nmax_pooling2d (MaxPooling2D)    (None, 15, 15, 64)   0           activation_36[0][0]              \n__________________________________________________________________________________________________\nconv2d_46 (Conv2D)              (None, 15, 15, 64)   4160        max_pooling2d[0][0]              \n__________________________________________________________________________________________________\nbatch_normalization_46 (BatchNo (None, 15, 15, 64)   256         conv2d_46[0][0]                  \n__________________________________________________________________________________________________\nactivation_37 (Activation)      (None, 15, 15, 64)   0           batch_normalization_46[0][0]     \n__________________________________________________________________________________________________\nconv2d_47 (Conv2D)              (None, 15, 15, 64)   36928       activation_37[0][0]              \n__________________________________________________________________________________________________\nbatch_normalization_47 (BatchNo (None, 15, 15, 64)   256         conv2d_47[0][0]                  \n__________________________________________________________________________________________________\nactivation_38 (Activation)      (None, 15, 15, 64)   0           batch_normalization_47[0][0]     \n__________________________________________________________________________________________________\nconv2d_48 (Conv2D)              (None, 15, 15, 256)  16640       activation_38[0][0]              \n__________________________________________________________________________________________________\nconv2d_49 (Conv2D)              (None, 15, 15, 256)  16640       max_pooling2d[0][0]              \n__________________________________________________________________________________________________\nbatch_normalization_48 (BatchNo (None, 15, 15, 256)  1024        conv2d_48[0][0]                  \n__________________________________________________________________________________________________\nbatch_normalization_49 (BatchNo (None, 15, 15, 256)  1024        conv2d_49[0][0]                  \n__________________________________________________________________________________________________\nadd_13 (Add)                    (None, 15, 15, 256)  0           batch_normalization_48[0][0]     \n                                                                 batch_normalization_49[0][0]     \n__________________________________________________________________________________________________\nactivation_39 (Activation)      (None, 15, 15, 256)  0           add_13[0][0]                     \n__________________________________________________________________________________________________\nconv2d_50 (Conv2D)              (None, 15, 15, 64)   16448       activation_39[0][0]              \n__________________________________________________________________________________________________\nbatch_normalization_50 (BatchNo (None, 15, 15, 64)   256         conv2d_50[0][0]                  \n__________________________________________________________________________________________________\nactivation_40 (Activation)      (None, 15, 15, 64)   0           batch_normalization_50[0][0]     \n__________________________________________________________________________________________________\nconv2d_51 (Conv2D)              (None, 15, 15, 64)   36928       activation_40[0][0]              \n__________________________________________________________________________________________________\nbatch_normalization_51 (BatchNo (None, 15, 15, 64)   256         conv2d_51[0][0]                  \n__________________________________________________________________________________________________\nactivation_41 (Activation)      (None, 15, 15, 64)   0           batch_normalization_51[0][0]     \n__________________________________________________________________________________________________\nconv2d_52 (Conv2D)              (None, 15, 15, 256)  16640       activation_41[0][0]              \n__________________________________________________________________________________________________\nbatch_normalization_52 (BatchNo (None, 15, 15, 256)  1024        conv2d_52[0][0]                  \n__________________________________________________________________________________________________\nadd_14 (Add)                    (None, 15, 15, 256)  0           activation_39[0][0]              \n                                                                 batch_normalization_52[0][0]     \n__________________________________________________________________________________________________\nactivation_42 (Activation)      (None, 15, 15, 256)  0           add_14[0][0]                     \n__________________________________________________________________________________________________\nconv2d_53 (Conv2D)              (None, 15, 15, 64)   16448       activation_42[0][0]              \n__________________________________________________________________________________________________\nbatch_normalization_53 (BatchNo (None, 15, 15, 64)   256         conv2d_53[0][0]                  \n__________________________________________________________________________________________________\nactivation_43 (Activation)      (None, 15, 15, 64)   0           batch_normalization_53[0][0]     \n__________________________________________________________________________________________________\nconv2d_54 (Conv2D)              (None, 15, 15, 64)   36928       activation_43[0][0]              \n__________________________________________________________________________________________________\nbatch_normalization_54 (BatchNo (None, 15, 15, 64)   256         conv2d_54[0][0]                  \n__________________________________________________________________________________________________\nactivation_44 (Activation)      (None, 15, 15, 64)   0           batch_normalization_54[0][0]     \n__________________________________________________________________________________________________\nconv2d_55 (Conv2D)              (None, 15, 15, 256)  16640       activation_44[0][0]              \n__________________________________________________________________________________________________\nbatch_normalization_55 (BatchNo (None, 15, 15, 256)  1024        conv2d_55[0][0]                  \n__________________________________________________________________________________________________\nadd_15 (Add)                    (None, 15, 15, 256)  0           activation_42[0][0]              \n                                                                 batch_normalization_55[0][0]     \n__________________________________________________________________________________________________\nactivation_45 (Activation)      (None, 15, 15, 256)  0           add_15[0][0]                     \n__________________________________________________________________________________________________\nconv2d_56 (Conv2D)              (None, 8, 8, 128)    32896       activation_45[0][0]              \n__________________________________________________________________________________________________\nbatch_normalization_56 (BatchNo (None, 8, 8, 128)    512         conv2d_56[0][0]                  \n__________________________________________________________________________________________________\nactivation_46 (Activation)      (None, 8, 8, 128)    0           batch_normalization_56[0][0]     \n__________________________________________________________________________________________________\nconv2d_57 (Conv2D)              (None, 8, 8, 128)    147584      activation_46[0][0]              \n__________________________________________________________________________________________________\nbatch_normalization_57 (BatchNo (None, 8, 8, 128)    512         conv2d_57[0][0]                  \n__________________________________________________________________________________________________\nactivation_47 (Activation)      (None, 8, 8, 128)    0           batch_normalization_57[0][0]     \n__________________________________________________________________________________________________\nconv2d_58 (Conv2D)              (None, 8, 8, 512)    66048       activation_47[0][0]              \n__________________________________________________________________________________________________\nconv2d_59 (Conv2D)              (None, 8, 8, 512)    131584      activation_45[0][0]              \n__________________________________________________________________________________________________\nbatch_normalization_58 (BatchNo (None, 8, 8, 512)    2048        conv2d_58[0][0]                  \n__________________________________________________________________________________________________\nbatch_normalization_59 (BatchNo (None, 8, 8, 512)    2048        conv2d_59[0][0]                  \n__________________________________________________________________________________________________\nadd_16 (Add)                    (None, 8, 8, 512)    0           batch_normalization_58[0][0]     \n                                                                 batch_normalization_59[0][0]     \n__________________________________________________________________________________________________\nactivation_48 (Activation)      (None, 8, 8, 512)    0           add_16[0][0]                     \n__________________________________________________________________________________________________\nconv2d_60 (Conv2D)              (None, 8, 8, 128)    65664       activation_48[0][0]              \n__________________________________________________________________________________________________\nbatch_normalization_60 (BatchNo (None, 8, 8, 128)    512         conv2d_60[0][0]                  \n__________________________________________________________________________________________________\nactivation_49 (Activation)      (None, 8, 8, 128)    0           batch_normalization_60[0][0]     \n__________________________________________________________________________________________________\nconv2d_61 (Conv2D)              (None, 8, 8, 128)    147584      activation_49[0][0]              \n__________________________________________________________________________________________________\nbatch_normalization_61 (BatchNo (None, 8, 8, 128)    512         conv2d_61[0][0]                  \n__________________________________________________________________________________________________\nactivation_50 (Activation)      (None, 8, 8, 128)    0           batch_normalization_61[0][0]     \n__________________________________________________________________________________________________\nconv2d_62 (Conv2D)              (None, 8, 8, 512)    66048       activation_50[0][0]              \n__________________________________________________________________________________________________\nbatch_normalization_62 (BatchNo (None, 8, 8, 512)    2048        conv2d_62[0][0]                  \n__________________________________________________________________________________________________\nadd_17 (Add)                    (None, 8, 8, 512)    0           activation_48[0][0]              \n                                                                 batch_normalization_62[0][0]     \n__________________________________________________________________________________________________\nactivation_51 (Activation)      (None, 8, 8, 512)    0           add_17[0][0]                     \n__________________________________________________________________________________________________\nconv2d_63 (Conv2D)              (None, 8, 8, 128)    65664       activation_51[0][0]              \n__________________________________________________________________________________________________\nbatch_normalization_63 (BatchNo (None, 8, 8, 128)    512         conv2d_63[0][0]                  \n__________________________________________________________________________________________________\nactivation_52 (Activation)      (None, 8, 8, 128)    0           batch_normalization_63[0][0]     \n__________________________________________________________________________________________________\nconv2d_64 (Conv2D)              (None, 8, 8, 128)    147584      activation_52[0][0]              \n__________________________________________________________________________________________________\nbatch_normalization_64 (BatchNo (None, 8, 8, 128)    512         conv2d_64[0][0]                  \n__________________________________________________________________________________________________\nactivation_53 (Activation)      (None, 8, 8, 128)    0           batch_normalization_64[0][0]     \n__________________________________________________________________________________________________\nconv2d_65 (Conv2D)              (None, 8, 8, 512)    66048       activation_53[0][0]              \n__________________________________________________________________________________________________\nbatch_normalization_65 (BatchNo (None, 8, 8, 512)    2048        conv2d_65[0][0]                  \n__________________________________________________________________________________________________\nadd_18 (Add)                    (None, 8, 8, 512)    0           activation_51[0][0]              \n                                                                 batch_normalization_65[0][0]     \n__________________________________________________________________________________________________\nactivation_54 (Activation)      (None, 8, 8, 512)    0           add_18[0][0]                     \n__________________________________________________________________________________________________\nconv2d_66 (Conv2D)              (None, 8, 8, 128)    65664       activation_54[0][0]              \n__________________________________________________________________________________________________\nbatch_normalization_66 (BatchNo (None, 8, 8, 128)    512         conv2d_66[0][0]                  \n__________________________________________________________________________________________________\nactivation_55 (Activation)      (None, 8, 8, 128)    0           batch_normalization_66[0][0]     \n__________________________________________________________________________________________________\nconv2d_67 (Conv2D)              (None, 8, 8, 128)    147584      activation_55[0][0]              \n__________________________________________________________________________________________________\nbatch_normalization_67 (BatchNo (None, 8, 8, 128)    512         conv2d_67[0][0]                  \n__________________________________________________________________________________________________\nactivation_56 (Activation)      (None, 8, 8, 128)    0           batch_normalization_67[0][0]     \n__________________________________________________________________________________________________\nconv2d_68 (Conv2D)              (None, 8, 8, 512)    66048       activation_56[0][0]              \n__________________________________________________________________________________________________\nbatch_normalization_68 (BatchNo (None, 8, 8, 512)    2048        conv2d_68[0][0]                  \n__________________________________________________________________________________________________\nadd_19 (Add)                    (None, 8, 8, 512)    0           activation_54[0][0]              \n                                                                 batch_normalization_68[0][0]     \n__________________________________________________________________________________________________\nactivation_57 (Activation)      (None, 8, 8, 512)    0           add_19[0][0]                     \n__________________________________________________________________________________________________\nconv2d_69 (Conv2D)              (None, 4, 4, 256)    131328      activation_57[0][0]              \n__________________________________________________________________________________________________\nbatch_normalization_69 (BatchNo (None, 4, 4, 256)    1024        conv2d_69[0][0]                  \n__________________________________________________________________________________________________\nactivation_58 (Activation)      (None, 4, 4, 256)    0           batch_normalization_69[0][0]     \n__________________________________________________________________________________________________\nconv2d_70 (Conv2D)              (None, 4, 4, 256)    590080      activation_58[0][0]              \n__________________________________________________________________________________________________\nbatch_normalization_70 (BatchNo (None, 4, 4, 256)    1024        conv2d_70[0][0]                  \n__________________________________________________________________________________________________\nactivation_59 (Activation)      (None, 4, 4, 256)    0           batch_normalization_70[0][0]     \n__________________________________________________________________________________________________\nconv2d_71 (Conv2D)              (None, 4, 4, 1024)   263168      activation_59[0][0]              \n__________________________________________________________________________________________________\nconv2d_72 (Conv2D)              (None, 4, 4, 1024)   525312      activation_57[0][0]              \n__________________________________________________________________________________________________\nbatch_normalization_71 (BatchNo (None, 4, 4, 1024)   4096        conv2d_71[0][0]                  \n__________________________________________________________________________________________________\nbatch_normalization_72 (BatchNo (None, 4, 4, 1024)   4096        conv2d_72[0][0]                  \n__________________________________________________________________________________________________\nadd_20 (Add)                    (None, 4, 4, 1024)   0           batch_normalization_71[0][0]     \n                                                                 batch_normalization_72[0][0]     \n__________________________________________________________________________________________________\nactivation_60 (Activation)      (None, 4, 4, 1024)   0           add_20[0][0]                     \n__________________________________________________________________________________________________\nconv2d_73 (Conv2D)              (None, 4, 4, 256)    262400      activation_60[0][0]              \n__________________________________________________________________________________________________\nbatch_normalization_73 (BatchNo (None, 4, 4, 256)    1024        conv2d_73[0][0]                  \n__________________________________________________________________________________________________\nactivation_61 (Activation)      (None, 4, 4, 256)    0           batch_normalization_73[0][0]     \n__________________________________________________________________________________________________\nconv2d_74 (Conv2D)              (None, 4, 4, 256)    590080      activation_61[0][0]              \n__________________________________________________________________________________________________\nbatch_normalization_74 (BatchNo (None, 4, 4, 256)    1024        conv2d_74[0][0]                  \n__________________________________________________________________________________________________\nactivation_62 (Activation)      (None, 4, 4, 256)    0           batch_normalization_74[0][0]     \n__________________________________________________________________________________________________\nconv2d_75 (Conv2D)              (None, 4, 4, 1024)   263168      activation_62[0][0]              \n__________________________________________________________________________________________________\nbatch_normalization_75 (BatchNo (None, 4, 4, 1024)   4096        conv2d_75[0][0]                  \n__________________________________________________________________________________________________\nadd_21 (Add)                    (None, 4, 4, 1024)   0           activation_60[0][0]              \n                                                                 batch_normalization_75[0][0]     \n__________________________________________________________________________________________________\nactivation_63 (Activation)      (None, 4, 4, 1024)   0           add_21[0][0]                     \n__________________________________________________________________________________________________\nconv2d_76 (Conv2D)              (None, 4, 4, 256)    262400      activation_63[0][0]              \n__________________________________________________________________________________________________\nbatch_normalization_76 (BatchNo (None, 4, 4, 256)    1024        conv2d_76[0][0]                  \n__________________________________________________________________________________________________\nactivation_64 (Activation)      (None, 4, 4, 256)    0           batch_normalization_76[0][0]     \n__________________________________________________________________________________________________\nconv2d_77 (Conv2D)              (None, 4, 4, 256)    590080      activation_64[0][0]              \n__________________________________________________________________________________________________\nbatch_normalization_77 (BatchNo (None, 4, 4, 256)    1024        conv2d_77[0][0]                  \n__________________________________________________________________________________________________\nactivation_65 (Activation)      (None, 4, 4, 256)    0           batch_normalization_77[0][0]     \n__________________________________________________________________________________________________\nconv2d_78 (Conv2D)              (None, 4, 4, 1024)   263168      activation_65[0][0]              \n__________________________________________________________________________________________________\nbatch_normalization_78 (BatchNo (None, 4, 4, 1024)   4096        conv2d_78[0][0]                  \n__________________________________________________________________________________________________\nadd_22 (Add)                    (None, 4, 4, 1024)   0           activation_63[0][0]              \n                                                                 batch_normalization_78[0][0]     \n__________________________________________________________________________________________________\nactivation_66 (Activation)      (None, 4, 4, 1024)   0           add_22[0][0]                     \n__________________________________________________________________________________________________\nconv2d_79 (Conv2D)              (None, 4, 4, 256)    262400      activation_66[0][0]              \n__________________________________________________________________________________________________\nbatch_normalization_79 (BatchNo (None, 4, 4, 256)    1024        conv2d_79[0][0]                  \n__________________________________________________________________________________________________\nactivation_67 (Activation)      (None, 4, 4, 256)    0           batch_normalization_79[0][0]     \n__________________________________________________________________________________________________\nconv2d_80 (Conv2D)              (None, 4, 4, 256)    590080      activation_67[0][0]              \n__________________________________________________________________________________________________\nbatch_normalization_80 (BatchNo (None, 4, 4, 256)    1024        conv2d_80[0][0]                  \n__________________________________________________________________________________________________\nactivation_68 (Activation)      (None, 4, 4, 256)    0           batch_normalization_80[0][0]     \n__________________________________________________________________________________________________\nconv2d_81 (Conv2D)              (None, 4, 4, 1024)   263168      activation_68[0][0]              \n__________________________________________________________________________________________________\nbatch_normalization_81 (BatchNo (None, 4, 4, 1024)   4096        conv2d_81[0][0]                  \n__________________________________________________________________________________________________\nadd_23 (Add)                    (None, 4, 4, 1024)   0           activation_66[0][0]              \n                                                                 batch_normalization_81[0][0]     \n__________________________________________________________________________________________________\nactivation_69 (Activation)      (None, 4, 4, 1024)   0           add_23[0][0]                     \n__________________________________________________________________________________________________\nconv2d_82 (Conv2D)              (None, 4, 4, 256)    262400      activation_69[0][0]              \n__________________________________________________________________________________________________\nbatch_normalization_82 (BatchNo (None, 4, 4, 256)    1024        conv2d_82[0][0]                  \n__________________________________________________________________________________________________\nactivation_70 (Activation)      (None, 4, 4, 256)    0           batch_normalization_82[0][0]     \n__________________________________________________________________________________________________\nconv2d_83 (Conv2D)              (None, 4, 4, 256)    590080      activation_70[0][0]              \n__________________________________________________________________________________________________\nbatch_normalization_83 (BatchNo (None, 4, 4, 256)    1024        conv2d_83[0][0]                  \n__________________________________________________________________________________________________\nactivation_71 (Activation)      (None, 4, 4, 256)    0           batch_normalization_83[0][0]     \n__________________________________________________________________________________________________\nconv2d_84 (Conv2D)              (None, 4, 4, 1024)   263168      activation_71[0][0]              \n__________________________________________________________________________________________________\nbatch_normalization_84 (BatchNo (None, 4, 4, 1024)   4096        conv2d_84[0][0]                  \n__________________________________________________________________________________________________\nadd_24 (Add)                    (None, 4, 4, 1024)   0           activation_69[0][0]              \n                                                                 batch_normalization_84[0][0]     \n__________________________________________________________________________________________________\nactivation_72 (Activation)      (None, 4, 4, 1024)   0           add_24[0][0]                     \n__________________________________________________________________________________________________\nconv2d_85 (Conv2D)              (None, 4, 4, 256)    262400      activation_72[0][0]              \n__________________________________________________________________________________________________\nbatch_normalization_85 (BatchNo (None, 4, 4, 256)    1024        conv2d_85[0][0]                  \n__________________________________________________________________________________________________\nactivation_73 (Activation)      (None, 4, 4, 256)    0           batch_normalization_85[0][0]     \n__________________________________________________________________________________________________\nconv2d_86 (Conv2D)              (None, 4, 4, 256)    590080      activation_73[0][0]              \n__________________________________________________________________________________________________\nbatch_normalization_86 (BatchNo (None, 4, 4, 256)    1024        conv2d_86[0][0]                  \n__________________________________________________________________________________________________\nactivation_74 (Activation)      (None, 4, 4, 256)    0           batch_normalization_86[0][0]     \n__________________________________________________________________________________________________\nconv2d_87 (Conv2D)              (None, 4, 4, 1024)   263168      activation_74[0][0]              \n__________________________________________________________________________________________________\nbatch_normalization_87 (BatchNo (None, 4, 4, 1024)   4096        conv2d_87[0][0]                  \n__________________________________________________________________________________________________\nadd_25 (Add)                    (None, 4, 4, 1024)   0           activation_72[0][0]              \n                                                                 batch_normalization_87[0][0]     \n__________________________________________________________________________________________________\nactivation_75 (Activation)      (None, 4, 4, 1024)   0           add_25[0][0]                     \n__________________________________________________________________________________________________\nconv2d_88 (Conv2D)              (None, 2, 2, 512)    524800      activation_75[0][0]              \n__________________________________________________________________________________________________\nbatch_normalization_88 (BatchNo (None, 2, 2, 512)    2048        conv2d_88[0][0]                  \n__________________________________________________________________________________________________\nactivation_76 (Activation)      (None, 2, 2, 512)    0           batch_normalization_88[0][0]     \n__________________________________________________________________________________________________\nconv2d_89 (Conv2D)              (None, 2, 2, 512)    2359808     activation_76[0][0]              \n__________________________________________________________________________________________________\nbatch_normalization_89 (BatchNo (None, 2, 2, 512)    2048        conv2d_89[0][0]                  \n__________________________________________________________________________________________________\nactivation_77 (Activation)      (None, 2, 2, 512)    0           batch_normalization_89[0][0]     \n__________________________________________________________________________________________________\nconv2d_90 (Conv2D)              (None, 2, 2, 2048)   1050624     activation_77[0][0]              \n__________________________________________________________________________________________________\nconv2d_91 (Conv2D)              (None, 2, 2, 2048)   2099200     activation_75[0][0]              \n__________________________________________________________________________________________________\nbatch_normalization_90 (BatchNo (None, 2, 2, 2048)   8192        conv2d_90[0][0]                  \n__________________________________________________________________________________________________\nbatch_normalization_91 (BatchNo (None, 2, 2, 2048)   8192        conv2d_91[0][0]                  \n__________________________________________________________________________________________________\nadd_26 (Add)                    (None, 2, 2, 2048)   0           batch_normalization_90[0][0]     \n                                                                 batch_normalization_91[0][0]     \n__________________________________________________________________________________________________\nactivation_78 (Activation)      (None, 2, 2, 2048)   0           add_26[0][0]                     \n__________________________________________________________________________________________________\nconv2d_92 (Conv2D)              (None, 2, 2, 512)    1049088     activation_78[0][0]              \n__________________________________________________________________________________________________\nbatch_normalization_92 (BatchNo (None, 2, 2, 512)    2048        conv2d_92[0][0]                  \n__________________________________________________________________________________________________\nactivation_79 (Activation)      (None, 2, 2, 512)    0           batch_normalization_92[0][0]     \n__________________________________________________________________________________________________\nconv2d_93 (Conv2D)              (None, 2, 2, 512)    2359808     activation_79[0][0]              \n__________________________________________________________________________________________________\nbatch_normalization_93 (BatchNo (None, 2, 2, 512)    2048        conv2d_93[0][0]                  \n__________________________________________________________________________________________________\nactivation_80 (Activation)      (None, 2, 2, 512)    0           batch_normalization_93[0][0]     \n__________________________________________________________________________________________________\nconv2d_94 (Conv2D)              (None, 2, 2, 2048)   1050624     activation_80[0][0]              \n__________________________________________________________________________________________________\nbatch_normalization_94 (BatchNo (None, 2, 2, 2048)   8192        conv2d_94[0][0]                  \n__________________________________________________________________________________________________\nadd_27 (Add)                    (None, 2, 2, 2048)   0           activation_78[0][0]              \n                                                                 batch_normalization_94[0][0]     \n__________________________________________________________________________________________________\nactivation_81 (Activation)      (None, 2, 2, 2048)   0           add_27[0][0]                     \n__________________________________________________________________________________________________\nconv2d_95 (Conv2D)              (None, 2, 2, 512)    1049088     activation_81[0][0]              \n__________________________________________________________________________________________________\nbatch_normalization_95 (BatchNo (None, 2, 2, 512)    2048        conv2d_95[0][0]                  \n__________________________________________________________________________________________________\nactivation_82 (Activation)      (None, 2, 2, 512)    0           batch_normalization_95[0][0]     \n__________________________________________________________________________________________________\nconv2d_96 (Conv2D)              (None, 2, 2, 512)    2359808     activation_82[0][0]              \n__________________________________________________________________________________________________\nbatch_normalization_96 (BatchNo (None, 2, 2, 512)    2048        conv2d_96[0][0]                  \n__________________________________________________________________________________________________\nactivation_83 (Activation)      (None, 2, 2, 512)    0           batch_normalization_96[0][0]     \n__________________________________________________________________________________________________\nconv2d_97 (Conv2D)              (None, 2, 2, 2048)   1050624     activation_83[0][0]              \n__________________________________________________________________________________________________\nbatch_normalization_97 (BatchNo (None, 2, 2, 2048)   8192        conv2d_97[0][0]                  \n__________________________________________________________________________________________________\nadd_28 (Add)                    (None, 2, 2, 2048)   0           activation_81[0][0]              \n                                                                 batch_normalization_97[0][0]     \n__________________________________________________________________________________________________\nactivation_84 (Activation)      (None, 2, 2, 2048)   0           add_28[0][0]                     \n__________________________________________________________________________________________________\naverage_pooling2d (AveragePooli (None, 1, 1, 2048)   0           activation_84[0][0]              \n__________________________________________________________________________________________________\nflatten (Flatten)               (None, 2048)         0           average_pooling2d[0][0]          \n__________________________________________________________________________________________________\ndense (Dense)                   (None, 6)            12294       flatten[0][0]                    \n==================================================================================================\nTotal params: 23,600,006\nTrainable params: 23,546,886\nNon-trainable params: 53,120\n__________________________________________________________________________________________________\nNone\n</code>\n</pre> <pre><code>from outputs import ResNet50_summary\n\
…
e>\n</pre> <p>Print the model summary below to see all the model's layers, the shapes of their outputs, and the total number of parameters, trainable and non-trainable. </p> <pre><code>base_model.summary()\n</code></pre> <pre>\n<code>Model: \"mobilenetv2_1.00_160\"\n__________________________________________________________________________________________________\nLayer (type)                    Output Shape         Param #     Connected to                     \n==================================================================================================\ninput_1 (InputLayer)            [(None, 160, 160, 3) 0                                            \n__________________________________________________________________________________________________\nConv1_pad (ZeroPadding2D)       (None, 161, 161, 3)  0           input_1[0][0]                    \n__________________________________________________________________________________________________\nConv1 (Conv2D)                  (None, 80, 80, 32)   864         Conv1_pad[0][0]                  \n__________________________________________________________________________________________________\nbn_Conv1 (BatchNormalization)   (None, 80, 80, 32)   128         Conv1[0][0]                      \n__________________________________________________________________________________________________\nConv1_relu (ReLU)               (None, 80, 80, 32)   0           bn_Conv1[0][0]                   \n__________________________________________________________________________________________________\nexpanded_conv_depthwise (Depthw (None, 80, 80, 32)   288         Conv1_relu[0][0]                 \n__________________________________________________________________________________________________\nexpanded_conv_depthwise_BN (Bat (None, 80, 80, 32)   128         expanded_conv_depthwise[0][0]    \n__________________________________________________________________________________________________\nexpanded_conv_depthwise_relu (R (None, 80, 80, 32)   0           expanded_conv_depthwise_BN[0][0] \n__________________________________________________________________________________________________\nexpanded_conv_project (Conv2D)  (None, 80, 80, 16)   512         expanded_conv_depthwise_relu[0][0\n__________________________________________________________________________________________________\nexpanded_conv_project_BN (Batch (None, 80, 80, 16)   64          expanded_conv_project[0][0]      \n__________________________________________________________________________________________________\nblock_1_expand (Conv2D)         (None, 80, 80, 96)   1536        expanded_conv_project_BN[0][0]   \n__________________________________________________________________________________________________\nblock_1_expand_BN (BatchNormali (None, 80, 80, 96)   384         block_1_expand[0][0]             \n__________________________________________________________________________________________________\nblock_1_expand_relu (ReLU)      (None, 80, 80, 96)   0           block_1_expand_BN[0][0]          \n__________________________________________________________________________________________________\nblock_1_pad (ZeroPadding2D)     (None, 81, 81, 96)   0           block_1_expand_relu[0][0]        \n__________________________________________________________________________________________________\nblock_1_depthwise (DepthwiseCon (None, 40, 40, 96)   864         block_1_pad[0][0]                \n__________________________________________________________________________________________________\nblock_1_depthwise_BN (BatchNorm (None, 40, 40, 96)   384         block_1_depthwise[0][0]          \n__________________________________________________________________________________________________\nblock_1_depthwise_relu (ReLU)   (None, 40, 40, 96)   0           block_1_depthwise_BN[0][0]       \n__________________________________________________________________________________________________\nblock_1_project (Conv2D)        (None, 40, 40, 24)   2304        block_1_depthwise_relu[0][0]     \n__________________________________________________________________________________________________\nblock_1_project_BN (BatchNormal (None, 40, 40, 24)   96          block_1_project[0][0]            \n__________________________________________________________________________________________________\nblock_2_expand (Conv2D)         (None, 40, 40, 144)  3456        block_1_project_BN[0][0]         \n__________________________________________________________________________________________________\nblock_2_expand_BN (BatchNormali (None, 40, 40, 144)  576         block_2_expand[0][0]             \n__________________________________________________________________________________________________\nblock_2_expand_relu (ReLU)      (None, 40, 40, 144)  0           block_2_expand_BN[0][0]          \n__________________________________________________________________________________________________\nblock_2_depthwise (DepthwiseCon (None, 40, 40, 144)  1296        block_2_expand_relu[0][0]        \n__________________________________________________________________________________________________\nblock_2_depthwise_BN (BatchNorm (None, 40, 40, 144)  576         block_2_depthwise[0][0]          \n__________________________________________________________________________________________________\nblock_2_depthwise_relu (ReLU)   (None, 40, 40, 144)  0           block_2_depthwise_BN[0][0]       \n__________________________________________________________________________________________________\nblock_2_project (Conv2D)        (None, 40, 40, 24)   3456        block_2_depthwise_relu[0][0]     \n__________________________________________________________________________________________________\nblock_2_project_BN (BatchNormal (None, 40, 40, 24)   96          block_2_project[0][0]            \n__________________________________________________________________________________________________\nblock_2_add (Add)               (None, 40, 40, 24)   0           block_1_project_BN[0][0]         \n                                                                 block_2_project_BN[0][0]         \n__________________________________________________________________________________________________\nblock_3_expand (Conv2D)         (None, 40, 40, 144)  3456        block_2_add[0][0]                \n__________________________________________________________________________________________________\nblock_3_expand_BN (BatchNormali (None, 40, 40, 144)  576         block_3_expand[0][0]             \n__________________________________________________________________________________________________\nblock_3_expand_relu (ReLU)      (None, 40, 40, 144)  0           block_3_expand_BN[0][0]          \n__________________________________________________________________________________________________\nblock_3_pad (ZeroPadding2D)     (None, 41, 41, 144)  0           block_3_expand_relu[0][0]        \n__________________________________________________________________________________________________\nblock_3_depthwise (DepthwiseCon (None, 20, 20, 144)  1296        block_3_pad[0][0]                \n__________________________________________________________________________________________________\nblock_3_depthwise_BN (BatchNorm (None, 20, 20, 144)  576         block_3_depthwise[0][0]          \n__________________________________________________________________________________________________\nblock_3_depthwise_relu (ReLU)   (None, 20, 20, 144)  0           block_3_depthwise_BN[0][0]       \n__________________________________________________________________________________________________\nblock_3_project (Conv2D)        (None, 20, 20, 32)   4608        block_3_depthwise_relu[0][0]     \n__________________________________________________________________________________________________\nblock_3_project_BN (BatchNormal (None, 20, 20, 32)   128         block_3_project[0][0]            \n__________________________________________________________________________________________________\nblock_4_expand (Conv2D)         (None, 20, 20, 192)  6144        block_3_project_BN[0][0]         \n__________________________________________________________________________________________________\nblock_4_expand_BN (BatchNormali (None, 20, 20, 192)  768         block_4_expand[0][0]             \n__________________________________________________________________________________________________\nblock_4_expand_relu (ReLU)      (None, 20, 20, 192)  0           block_4_expand_BN[0][0]          \n__________________________________________________________________________________________________\nblock_4_depthwise (DepthwiseCon (None, 20, 20, 192)  1728        block_4_expand_relu[0][0]        \n__________________________________________________________________________________________________\nblock_4_depthwise_BN (BatchNorm (None, 20, 20, 192)  768         block_4_depthwise[0][0]          \n__________________________________________________________________________________________________\nblock_4_depthwise_relu (ReLU)   (None, 20, 20, 192)  0           block_4_depthwise_BN[0][0]       \n__________________________________________________________________________________________________\nblock_4_project (Conv2D)        (None, 20, 20, 32)   6144        block_4_depthwise_relu[0][0]     \n__________________________________________________________________________________________________\nblock_4_project_BN (BatchNormal (None, 20, 20, 32)   128         block_4_project[0][0]            \n__________________________________________________________________________________________________\nblock_4_add (Add)               (None, 20, 20, 32)   0           block_3_project_BN[0][0]         \n                                                                 block_4_project_BN[0][0]         \n__________________________________________________________________________________________________\nblock_5_expand (Conv2D)         (None, 20, 20, 192)  6144        block_4_add[0][0]                \n__________________________________________________________________________________________________\nblock_5_expand_BN (BatchNormali (None, 20, 20, 192)  768         block_5_expand[0][0]             \n__________________________________________________________________________________________________\nblock_5_expand_relu (ReLU)      (None, 20, 20, 192)  0           block_5_expand_BN[0][0]          \n__________________________________________________________________________________________________\nblock_5_depthwise (DepthwiseCon (None, 20, 20, 192)  1728        block_5_expand_relu[0][0]        \n__________________________________________________________________________________________________\nblock_5_depthwise_BN (BatchNorm (None, 20, 20, 192)  768         block_5_depthwise[0][0]          \n__________________________________________________________________________________________________\nblock_5_depthwise_relu (ReLU)   (None, 20, 20, 192)  0           block_5_depthwise_BN[0][0]       \n__________________________________________________________________________________________________\nblock_5_project (Conv2D)        (None, 20, 20, 32)   6144        block_5_depthwise_relu[0][0]     \n__________________________________________________________________________________________________\nblock_5_project_BN (BatchNormal (None, 20, 20, 32)   128         block_5_project[0][0]            \n__________________________________________________________________________________________________\nblock_5_add (Add)               (None, 20, 20, 32)   0           block_4_add[0][0]                \n                                                                 block_5_project_BN[0][0]         \n__________________________________________________________________________________________________\nblock_6_expand (Conv2D)         (None, 20, 20, 192)  6144        block_5_add[0][0]                \n__________________________________________________________________________________________________\nblock_6_expand_BN (BatchNormali (None, 20, 20, 192)  768         block_6_expand[0][0]             \n__________________________________________________________________________________________________\nblock_6_expand_relu (ReLU)      (None, 20, 20, 192)  0           block_6_expand_BN[0][0]          \n__________________________________________________________________________________________________\nblock_6_pad (ZeroPadding2D)     (None, 21, 21, 192)  0           block_6_expand_relu[0][0]        \n__________________________________________________________________________________________________\nblock_6_depthwise (DepthwiseCon (None, 10, 10, 192)  1728        block_6_pad[0][0]                \n__________________________________________________________________________________________________\nblock_6_depthwise_BN (BatchNorm (None, 10, 10, 192)  768         block_6_depthwise[0][0]          \n__________________________________________________________________________________________________\nblock_6_depthwise_relu (ReLU)   (None, 10, 10, 192)  0           block_6_depthwise_BN[0][0]       \n__________________________________________________________________________________________________\nblock_6_project (Conv2D)        (None, 10, 10, 64)   12288       block_6_depthwise_relu[0][0]     \n__________________________________________________________________________________________________\nblock_6_project_BN (BatchNormal (None, 10, 10, 64)   256         block_6_project[0][0]            \n__________________________________________________________________________________________________\nblock_7_expand (Conv2D)         (None, 10, 10, 384)  24576       block_6_project_BN[0][0]         \n__________________________________________________________________________________________________\nblock_7_expand_BN (BatchNormali (None, 10, 10, 384)  1536        block_7_expand[0][0]             \n__________________________________________________________________________________________________\nblock_7_expand_relu (ReLU)      (None, 10, 10, 384)  0           block_7_expand_BN[0][0]          \n__________________________________________________________________________________________________\nblock_7_depthwise (DepthwiseCon (None, 10, 10, 384)  3456        block_7_expand_relu[0][0]        \n__________________________________________________________________________________________________\nblock_7_depthwise_BN (BatchNorm (None, 10, 10, 384)  1536        block_7_depthwise[0][0]          \n__________________________________________________________________________________________________\nblock_7_depthwise_relu (ReLU)   (None, 10, 10, 384)  0           block_7_depthwise_BN[0][0]       \n__________________________________________________________________________________________________\nblock_7_project (Conv2D)        (None, 10, 10, 64)   24576       block_7_depthwise_relu[0][0]     \n__________________________________________________________________________________________________\nblock_7_project_BN (BatchNormal (None, 10, 10, 64)   256         block_7_project[0][0]            \n__________________________________________________________________________________________________\nblock_7_add (Add)               (None, 10, 10, 64)   0           block_6_project_BN[0][0]         \n                                                                 block_7_project_BN[0][0]         \n__________________________________________________________________________________________________\nblock_8_expand (Conv2D)         (None, 10, 10, 384)  24576       block_7_add[0][0]                \n__________________________________________________________________________________________________\nblock_8_expand_BN (BatchNormali (None, 10, 10, 384)  1536        block_8_expand[0][0]             \n__________________________________________________________________________________________________\nblock_8_expand_relu (ReLU)      (None, 10, 10, 384)  0           block_8_expand_BN[0][0]          \n__________________________________________________________________________________________________\nblock_8_depthwise (DepthwiseCon (None, 10, 10, 384)  3456        block_8_expand_relu[0][0]        \n__________________________________________________________________________________________________\nblock_8_depthwise_BN (BatchNorm (None, 10, 10, 384)  1536        block_8_depthwise[0][0]          \n__________________________________________________________________________________________________\nblock_8_depthwise_relu (ReLU)   (None, 10, 10, 384)  0           block_8_depthwise_BN[0][0]       \n__________________________________________________________________________________________________\nblock_8_project (Conv2D)        (None, 10, 10, 64)   24576       block_8_depthwise_relu[0][0]     \n__________________________________________________________________________________________________\nblock_8_project_BN (BatchNormal (None, 10, 10, 64)   256         block_8_project[0][0]            \n__________________________________________________________________________________________________\nblock_8_add (Add)               (None, 10, 10, 64)   0           block_7_add[0][0]                \n                                                                 block_8_project_BN[0][0]         \n__________________________________________________________________________________________________\nblock_9_expand (Conv2D)         (None, 10, 10, 384)  24576       block_8_add[0][0]                \n__________________________________________________________________________________________________\nblock_9_expand_BN (BatchNormali (None, 10, 10, 384)  1536        block_9_expand[0][0]             \n__________________________________________________________________________________________________\nblock_9_expand_relu (ReLU)      (None, 10, 10, 384)  0           block_9_expand_BN[0][0]          \n__________________________________________________________________________________________________\nblock_9_depthwise (DepthwiseCon (None, 10, 10, 384)  3456        block_9_expand_relu[0][0]        \n__________________________________________________________________________________________________\nblock_9_depthwise_BN (BatchNorm (None, 10, 10, 384)  1536        block_9_depthwise[0][0]          \n__________________________________________________________________________________________________\nblock_9_depthwise_relu (ReLU)   (None, 10, 10, 384)  0           block_9_depthwise_BN[0][0]       \n__________________________________________________________________________________________________\nblock_9_project (Conv2D)        (None, 10, 10, 64)   24576       block_9_depthwise_relu[0][0]     \n__________________________________________________________________________________________________\nblock_9_project_BN (BatchNormal (None, 10, 10, 64)   256         block_9_project[0][0]            \n__________________________________________________________________________________________________\nblock_9_add (Add)               (None, 10, 10, 64)   0           block_8_add[0][0]                \n                                                                 block_9_project_BN[0][0]         \n__________________________________________________________________________________________________\nblock_10_expand (Conv2D)        (None, 10, 10, 384)  24576       block_9_add[0][0]                \n__________________________________________________________________________________________________\nblock_10_expand_BN (BatchNormal (None, 10, 10, 384)  1536        block_10_expand[0][0]            \n__________________________________________________________________________________________________\nblock_10_expand_relu (ReLU)     (None, 10, 10, 384)  0           block_10_expand_BN[0][0]         \n__________________________________________________________________________________________________\nblock_10_depthwise (DepthwiseCo (None, 10, 10, 384)  3456        block_10_expand_relu[0][0]       \n__________________________________________________________________________________________________\nblock_10_depthwise_BN (BatchNor (None, 10, 10, 384)  1536        block_10_depthwise[0][0]         \n__________________________________________________________________________________________________\nblock_10_depthwise_relu (ReLU)  (None, 10, 10, 384)  0           block_10_depthwise_BN[0][0]      \n__________________________________________________________________________________________________\nblock_10_project (Conv2D)       (None, 10, 10, 96)   36864       block_10_depthwise_relu[0][0]    \n__________________________________________________________________________________________________\nblock_10_project_BN (BatchNorma (None, 10, 10, 96)   384         block_10_project[0][0]           \n__________________________________________________________________________________________________\nblock_11_expand (Conv2D)        (None, 10, 10, 576)  55296       block_10_project_BN[0][0]        \n__________________________________________________________________________________________________\nblock_11_expand_BN (BatchNormal (None, 10, 10, 576)  2304        block_11_expand[0][0]            \n__________________________________________________________________________________________________\nblock_11_expand_relu (ReLU)     (None, 10, 10, 576)  0           block_11_expand_BN[0][0]         \n__________________________________________________________________________________________________\nblock_11_depthwise (DepthwiseCo (None, 10, 10, 576)  5184        block_11_expand_relu[0][0]       \n__________________________________________________________________________________________________\nblock_11_depthwise_BN (BatchNor (None, 10, 10, 576)  2304        block_11_depthwise[0][0]         \n__________________________________________________________________________________________________\nblock_11_depthwise_relu (ReLU)  (None, 10, 10, 576)  0           block_11_depthwise_BN[0][0]      \n__________________________________________________________________________________________________\nblock_11_project (Conv2D)       (None, 10, 10, 96)   55296       block_11_depthwise_relu[0][0]    \n__________________________________________________________________________________________________\nblock_11_project_BN (BatchNorma (None, 10, 10, 96)   384         block_11_project[0][0]           \n__________________________________________________________________________________________________\nblock_11_add (Add)              (None, 10, 10, 96)   0           block_10_project_BN[0][0]        \n                                                                 block_11_project_BN[0][0]        \n__________________________________________________________________________________________________\nblock_12_expand (Conv2D)        (None, 10, 10, 576)  55296       block_11_add[0][0]               \n__________________________________________________________________________________________________\nblock_12_expand_BN (BatchNormal (None, 10, 10, 576)  2304        block_12_expand[0][0]            \n__________________________________________________________________________________________________\nblock_12_expand_relu (ReLU)     (None, 10, 10, 576)  0           block_12_expand_BN[0][0]         \n__________________________________________________________________________________________________\nblock_12_depthwise (DepthwiseCo (None, 10, 10, 576)  5184        block_12_expand_relu[0][0]       \n__________________________________________________________________________________________________\nblock_12_depthwise_BN (BatchNor (None, 10, 10, 576)  2304        block_12_depthwise[0][0]         \n__________________________________________________________________________________________________\nblock_12_depthwise_relu (ReLU)  (None, 10, 10, 576)  0           block_12_depthwise_BN[0][0]      \n__________________________________________________________________________________________________\nblock_12_project (Conv2D)       (None, 10, 10, 96)   55296       block_12_depthwise_relu[0][0]    \n__________________________________________________________________________________________________\nblock_12_project_BN (BatchNorma (None, 10, 10, 96)   384         block_12_project[0][0]           \n__________________________________________________________________________________________________\nblock_12_add (Add)              (None, 10, 10, 96)   0           block_11_add[0][0]               \n                                                                 block_12_project_BN[0][0]        \n__________________________________________________________________________________________________\nblock_13_expand (Conv2D)        (None, 10, 10, 576)  55296       block_12_add[0][0]               \n__________________________________________________________________________________________________\nblock_13_expand_BN (BatchNormal (None, 10, 10, 576)  2304        block_13_expand[0][0]            \n__________________________________________________________________________________________________\nblock_13_expand_relu (ReLU)     (None, 10, 10, 576)  0           block_13_expand_BN[0][0]         \n__________________________________________________________________________________________________\nblock_13_pad (ZeroPadding2D)    (None, 11, 11, 576)  0           block_13_expand_relu[0][0]       \n__________________________________________________________________________________________________\nblock_13_depthwise (DepthwiseCo (None, 5, 5, 576)    5184        block_13_pad[0][0]               \n__________________________________________________________________________________________________\nblock_13_depthwise_BN (BatchNor (None, 5, 5, 576)    2304        block_13_depthwise[0][0]         \n__________________________________________________________________________________________________\nblock_13_depthwise_relu (ReLU)  (None, 5, 5, 576)    0           block_13_depthwise_BN[0][0]      \n__________________________________________________________________________________________________\nblock_13_project (Conv2D)       (None, 5, 5, 160)    92160       block_13_depthwise_relu[0][0]    \n__________________________________________________________________________________________________\nblock_13_project_BN (BatchNorma (None, 5, 5, 160)    640         block_13_project[0][0]           \n__________________________________________________________________________________________________\nblock_14_expand (Conv2D)        (None, 5, 5, 960)    153600      block_13_project_BN[0][0]        \n__________________________________________________________________________________________________\nblock_14_expand_BN (BatchNormal (None, 5, 5, 960)    3840        block_14_expand[0][0]            \n__________________________________________________________________________________________________\nblock_14_expand_relu (ReLU)     (None, 5, 5, 960)    0           block_14_expand_BN[0][0]         \n__________________________________________________________________________________________________\nblock_14_depthwise (DepthwiseCo (None, 5, 5, 960)    8640        block_14_expand_relu[0][0]       \n__________________________________________________________________________________________________\nblock_14_depthwise_BN (BatchNor (None, 5, 5, 960)    3840        block_14_depthwise[0][0]         \n__________________________________________________________________________________________________\nblock_14_depthwise_relu (ReLU)  (None, 5, 5, 960)    0           block_14_depthwise_BN[0][0]      \n__________________________________________________________________________________________________\nblock_14_project (Conv2D)       (None, 5, 5, 160)    153600      block_14_depthwise_relu[0][0]    \n__________________________________________________________________________________________________\nblock_14_project_BN (BatchNorma (None, 5, 5, 160)    640         block_14_project[0][0]           \n__________________________________________________________________________________________________\nblock_14_add (Add)              (None, 5, 5, 160)    0           block_13_project_BN[0][0]        \n                                                                 block_14_project_BN[0][0]        \n__________________________________________________________________________________________________\nblock_15_expand (Conv2D)        (None, 5, 5, 960)    153600      block_14_add[0][0]               \n__________________________________________________________________________________________________\nblock_15_expand_BN (BatchNormal (None, 5, 5, 960)    3840        block_15_expand[0][0]            \n__________________________________________________________________________________________________\nblock_15_expand_relu (ReLU)     (None, 5, 5, 960)    0           block_15_expand_BN[0][0]         \n__________________________________________________________________________________________________\nblock_15_depthwise (DepthwiseCo (None, 5, 5, 960)    8640        block_15_expand_relu[0][0]       \n__________________________________________________________________________________________________\nblock_15_depthwise_BN (BatchNor (None, 5, 5, 960)    3840        block_15_depthwise[0][0]         \n__________________________________________________________________________________________________\nblock_15_depthwise_relu (ReLU)  (None, 5, 5, 960)    0           block_15_depthwise_BN[0][0]      \n__________________________________________________________________________________________________\nblock_15_project (Conv2D)       (None, 5, 5, 160)    153600      block_15_depthwise_relu[0][0]    \n__________________________________________________________________________________________________\nblock_15_project_BN (BatchNorma (None, 5, 5, 160)    640         block_15_project[0][0]           \n__________________________________________________________________________________________________\nblock_15_add (Add)              (None, 5, 5, 160)    0           block_14_add[0][0]               \n                                                                 block_15_project_BN[0][0]        \n__________________________________________________________________________________________________\nblock_16_expand (Conv2D)        (None, 5, 5, 960)    153600      block_15_add[0][0]               \n__________________________________________________________________________________________________\nblock_16_expand_BN (BatchNormal (None, 5, 5, 960)    3840        block_16_expand[0][0]            \n__________________________________________________________________________________________________\nblock_16_expand_relu (ReLU)     (None, 5, 5, 960)    0           block_16_expand_BN[0][0]         \n__________________________________________________________________________________________________\nblock_16_depthwise (DepthwiseCo (None, 5, 5, 960)    8640        block_16_expand_relu[0][0]       \n__________________________________________________________________________________________________\nblock_16_depthwise_BN (BatchNor (None, 5, 5, 960)    3840        block_16_depthwise[0][0]         \n__________________________________________________________________________________________________\nblock_16_depthwise_relu (ReLU)  (None, 5, 5, 960)    0           block_16_depthwise_BN[0][0]      \n__________________________________________________________________________________________________\nblock_16_project (Conv2D)       (None, 5, 5, 320)    307200      block_16_depthwise_relu[0][0]    \n__________________________________________________________________________________________________\nblock_16_project_BN (BatchNorma (None, 5, 5, 320)    1280        block_16_project[0][0]           \n__________________________________________________________________________________________________\nConv_1 (Conv2D)                 (None, 5, 5, 1280)   409600      block_16_project_BN[0][0]        \n__________________________________________________________________________________________________\nConv_1_bn (BatchNormalization)  (None, 5, 5, 1280)   5120        Conv_1[0][0]                     \n__________________________________________________________________________________________________\nout_relu (ReLU)                 (None, 5, 5, 1280)   0           Conv_1_bn[0][0]                  \n__________________________________________________________________________________________________\nglobal_average_pooling2d (Globa (None, 1280)         0           out_relu[0][0]                   \n__________________________________________________________________________________________________\npredictions (Dense)             (None, 1000)         1281000     global_average_pooling2d[0][0]   \n==================================================================================================\nTotal params: 3,538,984\nTrainable params: 3,504,872\nNon-trainable params: 34,112\n__________________________________________________________________________________________________\n</code>\n</pre> <p>Note the last 2 layers here. They are the so called top l
…
e are 400,001*50 = 20,000,050 non-trainable parameters. </li> </ul> <pre><code>model = Emojify_V2((maxLen,), word_to_vec_map, word_to_index)\nmodel.summary()\n</code></pre> <pre>\n<code>(400001,)\n(400001, 50)\nModel: \"functional_3\"\n_________________________________________________________________\nLayer (type)                 Output Shape              Param #   \n=================================================================\ninput_3 (InputLayer)         [(None, 10)]              0         \n_________________________________________________________________\nembedding_5 (Embedding)      (None, 10, 50)            20000050  \n_________________________________________________________________\nlstm_2 (LSTM)                (None, 10, 128)           91648     \n_________________________________________________________________\ndropout_2 (Dropout)          (None, 10, 128)           0         \n_________________________________________________________________\nlstm_3 (LSTM)                (None, 128)               131584    \n_________________________________________________________________\ndropout_3 (Dropout)          (None, 128)               0         \n_________________________________________________________________\ndense_1 (Dense)              (None, 5)                 645       \n_________________________________________________________________\nactivation_1 (Activation)    (None, 5)                 0         \n=================================================================\nTotal params: 20,223,927\nTrainable params: 223,877\nNon-trainable params: 20,000,050\n_________________________________________________________________\n</code>\n</pre> <pre><code>model.compile(loss='categorical_crossentropy', optimizer='adam', metrics=['accuracy'])\n</code></pre> <p></p> <pre><code>X_train_indices = se
…
                                 lstm[442][2]                     \n__________________________________________________________________________________________________\ntf_op_layer_ArgMax_153 (TensorF [(None,)]            0           lstm[394][0]                     \n__________________________________________________________________________________________________\ntf_op_layer_OneHot_152 (TensorF [(None, 90)]         0           tf_op_layer_ArgMax_153[0][0]     \n__________________________________________________________________________________________________\nrepeat_vector_152 (RepeatVector (None, 1, 90)        0           tf_op_layer_OneHot_152[0][0]     \n__________________________________________________________________________________________________\ntf_op_layer_ArgMax_154 (TensorF [(None,)]            0           lstm[395][0]                     \n__________________________________________________________________________________________________\ntf_op_layer_OneHot_153 (TensorF [(None, 90)]         0           tf_op_layer_ArgMax_154[0][0]     \n__________________________________________________________________________________________________\nrepeat_vector_153 (RepeatVector (None, 1, 90)        0           tf_op_layer_OneHot_153[0][0]     \n__________________________________________________________________________________________________\ntf_op_layer_ArgMax_155 (TensorF [(None,)]            0           lstm[396][0]                     \n__________________________________________________________________________________________________\ntf_op_layer_OneHot_154 (TensorF [(None, 90)]         0           tf_op_layer_ArgMax_155[0][0]     \n__________________________________________________________________________________________________\nrepeat_vector_154 (RepeatVector (None, 1, 90)        0           tf_op_layer_OneHot_154[0][0]     \n__________________________________________________________________________________________________\ntf_op_layer_ArgMax_156 (TensorF [(None,)]            0           lstm[397][0]                     \n__________________________________________________________________________________________________\ntf_op_layer_OneHot_155 (TensorF [(None, 90)]         0           tf_op_layer_ArgMax_156[0][0]     \n__________________________________________________________________________________________________\nrepeat_vector_155 (RepeatVector (None, 1, 90)        0           tf_op_layer_OneHot_155[0][0]     \n__________________________________________________________________________________________________\ntf_op_layer_ArgMax_157 (TensorF [(None,)]            0           lstm[398][0]                     \n__________________________________________________________________________________________________\ntf_op_layer_OneHot_156 (TensorF [(None, 90)]         0           tf_op_layer_ArgMax_157[0][0]     \n__________________________________________________________________________________________________\nrepeat_vector_156 (RepeatVector (None, 1, 90)        0           tf_op_layer_OneHot_156[0][0]     \n__________________________________________________________________________________________________\ntf_op_layer_ArgMax_158 (TensorF [(None,)]            0           lstm[399][0]                     \n__________________________________________________________________________________________________\ntf_op_layer_OneHot_157 (TensorF [(None, 90)]         0           tf_op_layer_ArgMax_158[0][0]     \n__________________________________________________________________________________________________\nrepeat_vector_157 (RepeatVector (None, 1, 90)        0           tf_op_layer_OneHot_157[0][0]     \n__________________________________________________________________________________________________\ntf_op_layer_ArgMax_159 (TensorF [(None,)]            0           lstm[400][0]                     \n__________________________________________________________________________________________________\ntf_op_layer_OneHot_158 (TensorF [(None, 90)]         0           tf_op_layer_ArgMax_159[0][0]     \n__________________________________________________________________________________________________\nrepeat_vector_158 (RepeatVector (None, 1, 90)        0           tf_op_layer_OneHot_158[0][0]     \n__________________________________________________________________________________________________\ntf_op_layer_ArgMax_160 (TensorF [(None,)]            0           lstm[401][0]                     \n__________________________________________________________________________________________________\ntf_op_layer_OneHot_159 (TensorF [(None, 90)]         0           tf_op_layer_ArgMax_160[0][0]     \n__________________________________________________________________________________________________\nrepeat_vector_159 (RepeatVector (None, 1, 90)        0           tf_op_layer_OneHot_159[0][0]     \n__________________________________________________________________________________________________\ntf_op_layer_ArgMax_161 (TensorF [(None,)]            0           lstm[402][0]                     \n__________________________________________________________________________________________________\ntf_op_layer_OneHot_160 (TensorF [(None, 90)]         0           tf_op_layer_ArgMax_161[0][0]     \n__________________________________________________________________________________________________\nrepeat_vector_160 (RepeatVector (None, 1, 90)        0           tf_op_layer_OneHot_160[0][0]     \n__________________________________________________________________________________________________\ntf_op_layer_ArgMax_162 (TensorF [(None,)]            0           lstm[403][0]                     \n__________________________________________________________________________________________________\ntf_op_layer_OneHot_161 (TensorF [(None, 90)]         0           tf_op_layer_ArgMax_162[0][0]     \n__________________________________________________________________________________________________\nrepeat_vector_161 (RepeatVector (None, 1, 90)        0           tf_op_layer_OneHot_161[0][0]     \n__________________________________________________________________________________________________\ntf_op_layer_ArgMax_163 (TensorF [(None,)]            0           lstm[404][0]                     \n__________________________________________________________________________________________________\ntf_op_layer_OneHot_162 (TensorF [(None, 90)]         0           tf_op_layer_ArgMax_163[0][0]     \n__________________________________________________________________________________________________\nrepeat_vector_162 (RepeatVector (None, 1, 90)        0           tf_op_layer_OneHot_162[0][0]     \n__________________________________________________________________________________________________\ntf_op_layer_ArgMax_164 (TensorF [(None,)]            0           lstm[405][0]                     \n__________________________________________________________________________________________________\ntf_op_layer_OneHot_163 (TensorF [(None, 90)]         0           tf_op_layer_ArgMax_164[0][0]     \n__________________________________________________________________________________________________\nrepeat_vector_163 (RepeatVector (None, 1, 90)        0           tf_op_layer_OneHot_163[0][0]     \n__________________________________________________________________________________________________\ntf_op_layer_ArgMax_165 (TensorF [(None,)]            0           lstm[406][0]                     \n__________________________________________________________________________________________________\ntf_op_layer_OneHot_164 (TensorF [(None, 90)]         0           tf_op_layer_ArgMax_165[0][0]     \n__________________________________________________________________________________________________\nrepeat_vector_164 (RepeatVector (None, 1, 90)        0           tf_op_layer_OneHot_164[0][0]     \n__________________________________________________________________________________________________\ntf_op_layer_ArgMax_166 (TensorF [(None,)]            0           lstm[407][0]                     \n__________________________________________________________________________________________________\ntf_op_layer_OneHot_165 (TensorF [(None, 90)]         0           tf_op_layer_ArgMax_166[0][0]     \n__________________________________________________________________________________________________\nrepeat_vector_165 (RepeatVector (None, 1, 90)        0           tf_op_layer_OneHot_165[0][0]     \n__________________________________________________________________________________________________\ntf_op_layer_ArgMax_167 (TensorF [(None,)]            0           lstm[408][0]                     \n__________________________________________________________________________________________________\ntf_op_layer_OneHot_166 (TensorF [(None, 90)]         0           tf_op_layer_ArgMax_167[0][0]     \n__________________________________________________________________________________________________\nrepeat_vector_166 (RepeatVector (None, 1, 90)        0           tf_op_layer_OneHot_166[0][0]     \n__________________________________________________________________________________________________\ntf_op_layer_ArgMax_168 (TensorF [(None,)]            0           lstm[409][0]                     \n__________________________________________________________________________________________________\ntf_op_layer_OneHot_167 (TensorF [(None, 90)]         0           tf_op_layer_ArgMax_168[0][0]     \n__________________________________________________________________________________________________\nrepeat_vector_167 (RepeatVector (None, 1, 90)        0           tf_op_layer_OneHot_167[0][0]     \n__________________________________________________________________________________________________\ntf_op_layer_ArgMax_169 (TensorF [(None,)]            0           lstm[410][0]                     \n__________________________________________________________________________________________________\ntf_op_layer_OneHot_168 (TensorF [(None, 90)]         0           tf_op_layer_ArgMax_169[0][0]     \n__________________________________________________________________________________________________\nrepeat_vector_168 (RepeatVector (None, 1, 90)        0           tf_op_layer_OneHot_168[0][0]     \n__________________________________________________________________________________________________\ntf_op_layer_ArgMax_170 (TensorF [(None,)]            0           lstm[411][0]                     \n__________________________________________________________________________________________________\ntf_op_layer_OneHot_169 (TensorF [(None, 90)]         0           tf_op_layer_ArgMax_170[0][0]     \n__________________________________________________________________________________________________\nrepeat_vector_169 (RepeatVector (None, 1, 90)        0           tf_op_layer_OneHot_169[0][0]     \n__________________________________________________________________________________________________\ntf_op_layer_ArgMax_171 (TensorF [(None,)]            0           lstm[412][0]                     \n__________________________________________________________________________________________________\ntf_op_layer_OneHot_170 (TensorF [(None, 90)]         0           tf_op_layer_ArgMax_171[0][0]     \n__________________________________________________________________________________________________\nrepeat_vector_170 (RepeatVector (None, 1, 90)        0           tf_op_layer_OneHot_170[0][0]     \n__________________________________________________________________________________________________\ntf_op_layer_ArgMax_172 (TensorF [(None,)]            0           lstm[413][0]                     \n__________________________________________________________________________________________________\ntf_op_layer_OneHot_171 (TensorF [(None, 90)]         0           tf_op_layer_ArgMax_172[0][0]     \n__________________________________________________________________________________________________\nrepeat_vector_171 (RepeatVector (None, 1, 90)        0           tf_op_layer_OneHot_171[0][0]     \n__________________________________________________________________________________________________\ntf_op_layer_ArgMax_173 (TensorF [(None,)]            0           lstm[414][0]                     \n__________________________________________________________________________________________________\ntf_op_layer_OneHot_172 (TensorF [(None, 90)]         0           tf_op_layer_ArgMax_173[0][0]     \n__________________________________________________________________________________________________\nrepeat_vector_172 (RepeatVector (None, 1, 90)        0           tf_op_layer_OneHot_172[0][0]     \n__________________________________________________________________________________________________\ntf_op_layer_ArgMax_174 (TensorF [(None,)]            0           lstm[415][0]                     \n__________________________________________________________________________________________________\ntf_op_layer_OneHot_173 (TensorF [(None, 90)]         0           tf_op_layer_ArgMax_174[0][0]     \n__________________________________________________________________________________________________\nrepeat_vector_173 (RepeatVector (None, 1, 90)        0           tf_op_layer_OneHot_173[0][0]     \n__________________________________________________________________________________________________\ntf_op_layer_ArgMax_175 (TensorF [(None,)]            0           lstm[416][0]                     \n__________________________________________________________________________________________________\ntf_op_layer_OneHot_174 (TensorF [(None, 90)]         0           tf_op_layer_ArgMax_175[0][0]     \n__________________________________________________________________________________________________\nrepeat_vector_174 (RepeatVector (None, 1, 90)        0           tf_op_layer_OneHot_174[0][0]     \n__________________________________________________________________________________________________\ntf_op_layer_ArgMax_176 (TensorF [(None,)]            0           lstm[417][0]                     \n__________________________________________________________________________________________________\ntf_op_layer_OneHot_175 (TensorF [(None, 90)]         0           tf_op_layer_ArgMax_176[0][0]     \n__________________________________________________________________________________________________\nrepeat_vector_175 (RepeatVector (None, 1, 90)        0           tf_op_layer_OneHot_175[0][0]     \n__________________________________________________________________________________________________\ntf_op_layer_ArgMax_177 (TensorF [(None,)]            0           lstm[418][0]                     \n__________________________________________________________________________________________________\ntf_op_layer_OneHot_176 (TensorF [(None, 90)]         0           tf_op_layer_ArgMax_177[0][0]     \n__________________________________________________________________________________________________\nrepeat_vector_176 (RepeatVector (None, 1, 90)        0           tf_op_layer_OneHot_176[0][0]     \n__________________________________________________________________________________________________\ntf_op_layer_ArgMax_178 (TensorF [(None,)]            0           lstm[419][0]                     \n__________________________________________________________________________________________________\ntf_op_layer_OneHot_177 (TensorF [(None, 90)]         0           tf_op_layer_ArgMax_178[0][0]     \n__________________________________________________________________________________________________\nrepeat_vector_177 (RepeatVector (None, 1, 90)        0           tf_op_layer_OneHot_177[0][0]     \n__________________________________________________________________________________________________\ntf_op_layer_ArgMax_179 (TensorF [(None,)]            0           lstm[420][0]                     \n__________________________________________________________________________________________________\ntf_op_layer_OneHot_178 (TensorF [(None, 90)]         0           tf_op_layer_ArgMax_179[0][0]     \n__________________________________________________________________________________________________\nrepeat_vector_178 (RepeatVector (None, 1, 90)        0           tf_op_layer_OneHot_178[0][0]     \n__________________________________________________________________________________________________\ntf_op_layer_ArgMax_180 (TensorF [(None,)]            0           lstm[421][0]                     \n__________________________________________________________________________________________________\ntf_op_layer_OneHot_179 (TensorF [(None, 90)]         0           tf_op_layer_ArgMax_180[0][0]     \n__________________________________________________________________________________________________\nrepeat_vector_179 (RepeatVector (None, 1, 90)        0           tf_op_layer_OneHot_179[0][0]     \n__________________________________________________________________________________________________\ntf_op_layer_ArgMax_181 (TensorF [(None,)]            0           lstm[422][0]                     \n__________________________________________________________________________________________________\ntf_op_layer_OneHot_180 (TensorF [(None, 90)]         0           tf_op_layer_ArgMax_181[0][0]     \n__________________________________________________________________________________________________\nrepeat_vector_180 (RepeatVector (None, 1, 90)        0           tf_op_layer_OneHot_180[0][0]     \n__________________________________________________________________________________________________\ntf_op_layer_ArgMax_182 (TensorF [(None,)]            0           lstm[423][0]                     \n__________________________________________________________________________________________________\ntf_op_layer_OneHot_181 (TensorF [(None, 90)]         0           tf_op_layer_ArgMax_182[0][0]     \n__________________________________________________________________________________________________\nrepeat_vector_181 (RepeatVector (None, 1, 90)        0           tf_op_layer_OneHot_181[0][0]     \n__________________________________________________________________________________________________\ntf_op_layer_ArgMax_183 (TensorF [(None,)]            0           lstm[424][0]                     \n__________________________________________________________________________________________________\ntf_op_layer_OneHot_182 (TensorF [(None, 90)]         0           tf_op_layer_ArgMax_183[0][0]     \n__________________________________________________________________________________________________\nrepeat_vector_182 (RepeatVector (None, 1, 90)        0           tf_op_layer_OneHot_182[0][0]     \n__________________________________________________________________________________________________\ntf_op_layer_ArgMax_184 (TensorF [(None,)]            0           lstm[425][0]                     \n__________________________________________________________________________________________________\ntf_op_layer_OneHot_183 (TensorF [(None, 90)]         0           tf_op_layer_ArgMax_184[0][0]     \n__________________________________________________________________________________________________\nrepeat_vector_183 (RepeatVector (None, 1, 90)        0           tf_op_layer_OneHot_183[0][0]     \n__________________________________________________________________________________________________\ntf_op_layer_ArgMax_185 (TensorF [(None,)]            0           lstm[426][0]                     \n__________________________________________________________________________________________________\ntf_op_layer_OneHot_184 (TensorF [(None, 90)]         0           tf_op_layer_ArgMax_185[0][0]     \n__________________________________________________________________________________________________\nrepeat_vector_184 (RepeatVector (None, 1, 90)        0           tf_op_layer_OneHot_184[0][0]     \n__________________________________________________________________________________________________\ntf_op_layer_ArgMax_186 (TensorF [(None,)]            0           lstm[427][0]                     \n__________________________________________________________________________________________________\ntf_op_layer_OneHot_185 (TensorF [(None, 90)]         0           tf_op_layer_ArgMax_186[0][0]     \n__________________________________________________________________________________________________\nrepeat_vector_185 (RepeatVector (None, 1, 90)        0           tf_op_layer_OneHot_185[0][0]     \n__________________________________________________________________________________________________\ntf_op_layer_ArgMax_187 (TensorF [(None,)]            0           lstm[428][0]                     \n__________________________________________________________________________________________________\ntf_op_layer_OneHot_186 (TensorF [(None, 90)]         0           tf_op_layer_ArgMax_187[0][0]     \n__________________________________________________________________________________________________\nrepeat_vector_186 (RepeatVector (None, 1, 90)        0           tf_op_layer_OneHot_186[0][0]     \n__________________________________________________________________________________________________\ntf_op_layer_ArgMax_188 (TensorF [(None,)]            0           lstm[429][0]                     \n__________________________________________________________________________________________________\ntf_op_layer_OneHot_187 (TensorF [(None, 90)]         0           tf_op_layer_ArgMax_188[0][0]     \n__________________________________________________________________________________________________\nrepeat_vector_187 (RepeatVector (None, 1, 90)        0           tf_op_layer_OneHot_187[0][0]     \n__________________________________________________________________________________________________\ntf_op_layer_ArgMax_189 (TensorF [(None,)]            0           lstm[430][0]                     \n__________________________________________________________________________________________________\ntf_op_layer_OneHot_188 (TensorF [(None, 90)]         0           tf_op_layer_ArgMax_189[0][0]     \n__________________________________________________________________________________________________\nrepeat_vector_188 (RepeatVector (None, 1, 90)        0           tf_op_layer_OneHot_188[0][0]     \n__________________________________________________________________________________________________\ntf_op_layer_ArgMax_190 (TensorF [(None,)]            0           lstm[431][0]                     \n__________________________________________________________________________________________________\ntf_op_layer_OneHot_189 (TensorF [(None, 90)]         0           tf_op_layer_ArgMax_190[0][0]     \n__________________________________________________________________________________________________\nrepeat_vector_189 (RepeatVector (None, 1, 90)        0           tf_op_layer_OneHot_189[0][0]     \n__________________________________________________________________________________________________\ntf_op_layer_ArgMax_191 (TensorF [(None,)]            0           lstm[432][0]                     \n__________________________________________________________________________________________________\ntf_op_layer_OneHot_190 (TensorF [(None, 90)]         0           tf_op_layer_ArgMax_191[0][0]     \n__________________________________________________________________________________________________\nrepeat_vector_190 (RepeatVector (None, 1, 90)        0           tf_op_layer_OneHot_190[0][0]     \n__________________________________________________________________________________________________\ntf_op_layer_ArgMax_192 (TensorF [(None,)]            0           lstm[433][0]                     \n__________________________________________________________________________________________________\ntf_op_layer_OneHot_191 (TensorF [(None, 90)]         0           tf_op_layer_ArgMax_192[0][0]     \n__________________________________________________________________________________________________\nrepeat_vector_191 (RepeatVector (None, 1, 90)        0           tf_op_layer_OneHot_191[0][0]     \n__________________________________________________________________________________________________\ntf_op_layer_ArgMax_193 (TensorF [(None,)]            0           lstm[434][0]                     \n__________________________________________________________________________________________________\ntf_op_layer_OneHot_192 (TensorF [(None, 90)]         0           tf_op_layer_ArgMax_193[0][0]     \n__________________________________________________________________________________________________\nrepeat_vector_192 (RepeatVector (None, 1, 90)        0           tf_op_layer_OneHot_192[0][0]     \n__________________________________________________________________________________________________\ntf_op_layer_ArgMax_194 (TensorF [(None,)]            0           lstm[435][0]                     \n__________________________________________________________________________________________________\ntf_op_layer_OneHot_193 (TensorF [(None, 90)]         0           tf_op_layer_ArgMax_194[0][0]     \n__________________________________________________________________________________________________\nrepeat_vector_193 (RepeatVector (None, 1, 90)        0           tf_op_layer_OneHot_193[0][0]     \n__________________________________________________________________________________________________\ntf_op_layer_ArgMax_195 (TensorF [(None,)]            0           lstm[436][0]                     \n__________________________________________________________________________________________________\ntf_op_layer_OneHot_194 (TensorF [(None, 90)]         0           tf_op_layer_ArgMax_195[0][0]     \n__________________________________________________________________________________________________\nrepeat_vector_194 (RepeatVector (None, 1, 90)        0           tf_op_layer_OneHot_194[0][0]     \n__________________________________________________________________________________________________\ntf_op_layer_ArgMax_196 (TensorF [(None,)]            0           lstm[437][0]                     \n__________________________________________________________________________________________________\ntf_op_layer_OneHot_195 (TensorF [(None, 90)]         0           tf_op_layer_ArgMax_196[0][0]     \n__________________________________________________________________________________________________\nrepeat_vector_195 (RepeatVector (None, 1, 90)        0           tf_op_layer_OneHot_195[0][0]     \n__________________________________________________________________________________________________\ntf_op_layer_ArgMax_197 (TensorF [(None,)]            0           lstm[438][0]                     \n__________________________________________________________________________________________________\ntf_op_layer_OneHot_196 (TensorF [(None, 90)]         0           tf_op_layer_ArgMax_197[0][0]     \n__________________________________________________________________________________________________\nrepeat_vector_196 (RepeatVector (None, 1, 90)        0           tf_op_layer_OneHot_196[0][0]     \n__________________________________________________________________________________________________\ntf_op_layer_ArgMax_198 (TensorF [(None,)]            0           lstm[439][0]                     \n__________________________________________________________________________________________________\ntf_op_layer_OneHot_197 (TensorF [(None, 90)]         0           tf_op_layer_ArgMax_198[0][0]     \n__________________________________________________________________________________________________\nrepeat_vector_197 (RepeatVector (None, 1, 90)        0           tf_op_layer_OneHot_197[0][0]     \n__________________________________________________________________________________________________\ntf_op_layer_ArgMax_199 (TensorF [(None,)]            0           lstm[440][0]                     \n__________________________________________________________________________________________________\ntf_op_layer_OneHot_198 (TensorF [(None, 90)]         0           tf_op_layer_ArgMax_199[0][0]     \n__________________________________________________________________________________________________\nrepeat_vector_198 (RepeatVector (None, 1, 90)        0           tf_op_layer_OneHot_198[0][0]     \n__________________________________________________________________________________________________\ntf_op_layer_ArgMax_200 (TensorF [(None,)]            0           lstm[441][0]                     \n__________________________________________________________________________________________________\ntf_op_layer_OneHot_199 (TensorF [(None, 90)]         0           tf_op_layer_ArgMax_200[0][0]     \n__________________________________________________________________________________________________\nrepeat_vector_199 (RepeatVector (None, 1, 90)        0           tf_op_layer_OneHot_199[0][0]     \n__________________________________________________________________________________________________\ntf_op_layer_ArgMax_201 (TensorF [(None,)]            0           lstm[442][0]                     \n__________________________________________________________________________________________________\ntf_op_layer_OneHot_200 (TensorF [(None, 90)]         0           tf_op_layer_ArgMax_201[0][0]     \n__________________________________________________________________________________________________\nrepeat_vector_200 (RepeatVector (None, 1, 90)        0           tf_op_layer_OneHot_200[0][0]     \n__________________________________________________________________________________________________\ndense (Dense)                   multiple             5850        lstm[394][0]                     \n                                                                 lstm[395][0]                     \n                                                      
…
  #specify input size\n        ### START CODE HERE ### \n        Dense(25, activation=\"sigmoid\"),\n        Dense(15, activation=\"sigmoid\"),\n        Dense(1, activation=\"sigmoid\"),\n        ### END CODE HERE ### \n    ], name = \"my_model\" \n)                            \n</code></pre> <pre><code>model.summary()\n</code></pre> <pre>\n<code>Model: \"my_model\"\n_________________________________________________________________\n Layer (type)                Output Shape              Param #   \n=================================================================\n dense (Dense)               (None, 25)                10025     \n\n dense_1 (Dense)             (None, 15)                390       \n\n dense_2 (Dense)             (None, 1)                 16        \n\n=================================================================\nTotal params: 10,431\nTrainable params: 10,431\nNon-trainable params: 0\n_________________________________________________________________\n</code>\n</pre> Expected Output (Click to Expand)  The `model.summary()` function displays a useful summary of the model. Because we have specified an input layer size, the shape of the weight and bias arrays are determined and the total number of parameters per layer can be shown. Note, the names of the layers may vary as they are auto-generated.     <pre><code>Model: \"my_model\"\n_________________________________________________________________\nLayer (type)                 Output Shape              Param #   \n=================================================================\ndense (Dense)                (None, 25)                10025     \n_________________________________________________________________\ndense_1 (Dense)              (None, 15)                390       \n_________________________________________________________________\ndense_2 (Dense)              (None, 1)                 16        \n=================================================================\nTotal params: 10,431\nTrainable params: 10,431\nNon-trainable params: 0\n_________________________________________________________________\n</code></pre> Click for hints As described in the lecture:  <pre><code>model = Sequential(                      \n    [                                   \n        tf.keras.Input(shap
…
       \n        ### START CODE HERE ### \n    tf.keras.Input(shape=(400,)),    #specify input shape\n    Dense(25, activation=\"relu\"),\n    Dense(15, activation=\"relu\"),\n    Dense(10, activation=\"linear\")\n\n        ### END CODE HERE ### \n    ], name = \"my_model\" \n)\n</code></pre> <pre><code>model.summary()\n</code></pre> <pre>\n<code>Model: \"my_model\"\n_________________________________________________________________\n Layer (type)                Output Shape              Param #   \n=================================================================\n dense_3 (Dense)             (None, 25)                10025     \n\n dense_4 (Dense)             (None, 15)                390       \n\n dense_5 (Dense)             (None, 10)                160       \n\n=================================================================\nTotal params: 10,575\nTrainable params: 10,575\nNon-trainable params: 0\n_________________________________________________________________\n</code>\n</pre> Expected Output (Click to expand) The `model.summary()` function displays a useful summary of the model. Note, the names of the layers may vary as they are auto-generated unless the name is specified.      <pre><code>Model: \"my_model\"\n_________________________________________________________________\nLayer (type)                 Output Shape              Param #   \n=================================================================\nL1 (Dense)                   (None, 25)                10025     \n_________________________________________________________________\nL2 (Dense)                   (None, 15)                390       \n_________________________________________________________________\nL3 (Dense)                   (None, 10)                160       \n=================================================================\nTotal params: 10,575\nTrainable params: 10,575\nNon-trainable params: 0\n_________________________________________________________________\n</code></pre> Click for hints <pre><code>tf.random.set_seed(1234)\nmodel = Sequential(\n    [               \n        ### START CODE HERE ### \n        tf.keras.Input(shape=(400,)),   
…
- 0s 1ms/step - loss: 0.0155\nEpoch 1000/1000\n13/13 [==============================] - 0s 3ms/step - loss: 0.0172\n</code>\n</pre> <pre>\n<code>&lt;keras.callbacks.History at 0x7f890fe3cad0&gt;</code>\n</pre> <pre><code># BEGIN UNIT TEST\nmodel.summary()\n\nmodel_test(model, classes, X_train.shape[1]) \n# END UNIT TEST\n</code></pre> <pre>\n<code>Model: \"Complex\"\n_________________________________________________________________\n Layer (type)                Output Shape              Param #   \n=================================================================\n dense_3 (Dense)             (None, 120)               360       \n\n dense_4 (Dense)             (None, 40)                4840      \n\n dense_5 (Dense)             (None, 6)                 246       \n\n=================================================================\nTotal params: 5,446\nTrainable params: 5,446\nNon-trainable params: 0\n_________________________________________________________________\nAll tests passed!\n</code>\n</pre> Click for hints  Summary should match this (layer instance names may increment ) <pre><code>Model: \"Complex\"\n_________________________________________________________________\nLayer (type)                 Output Shape              Param #   \n=================================================================\nL1 (Dense)                   (None, 120)               360       \n_________________________________________________________________\nL2 (Dense)                   (None, 40)                4840      \n_________________________________________________________________\nL3 (Dense)                   (None, 6)                 246       \n=================================================================\nTotal params: 5,446\nTrainable params: 5,446\nNon-trainable params: 0\n_________________________________________________________________\n</code></pre> Click for more hints <pre><code>tf.random.set_seed(1234)\nmodel = Sequential(\n    [\n        Dense(120, activation = 'relu', name = \"L1\"),      \n        Dense(40, activ
…
lications/mobilenet_v2/mobilenet_v2_weights_tf_dim_ordering_tf_kernels_1.0_224_no_top.h5\n9412608/9406464 [==============================] - 0s 0us/step\n9420800/9406464 [==============================] - 0s 0us/step\nModel: \"model\"\n_________________________________________________________________\nLayer (type)                 Output Shape              Param #   \n=================================================================\ninput_1 (InputLayer)         [(None, 224, 224, 3)]     0         \n_________________________________________________________________\nmobilenetv2_1.00_224 (Functi (None, 7, 7, 1280)        2257984   \n_________________________________________________________________\nglobal_average_pooling2d (Gl (None, 1280)              0         \n_________________________________________________________________\nflatten (Flatten)            (None, 1280)              0         \n_________________________________________________________________\ndense (Dense)                (None, 1024)              1311744   \n_________________________________________________________________\ndense_1 (Dense)              (None, 512)               524800    \n_________________________________________________________________\ndense_2 (Dense)              (None, 4)                 2052      \n=================================================================\nTotal params: 4,096,580\nTrainable params: 4,062,468\nNon-trainable params: 34,112\n_________________________________________________________________\n</code>\n</pre> <p>Your expected model summary:</p> <p></p> <p></p> <p></p> <p></p> <pre><code># You'll train 50 epochs\nEPOCHS = 50\n\n### START CODE HERE ###\n\n# Choose a 
…
ras.layers.Input(shape=(64,84, 1))\ntest_output = conv_block(test_input, 32, 3, 2, 2)\ntest_model = tf.keras.Model(inputs=test_input, outputs=test_output)\n\nprint(test_model.summary())\n\n# free up test resources\ndel test_input, test_output, test_model\n</code></pre> <pre>\n<code>Model: \"model\"\n_________________________________________________________________\n Layer (type)                Output Shape              Param #   \n=================================================================\n input_1 (InputLayer)        [(None, 64, 84, 1)]       0         \n\n conv2d (Conv2D)             (None, 64, 84, 32)        320       \n\n leaky_re_lu (LeakyReLU)     (None, 64, 84, 32)        0         \n\n conv2d_1 (Conv2D)           (None, 64, 84, 32)        9248      \n\n leaky_re_lu_1 (LeakyReLU)   (None, 64, 84, 32)        0         \n\n max_pooling2d (MaxPooling2D  (None, 32, 42, 32)       0         \n )                                                               \n\n batch_normalization (BatchN  (None, 32, 42, 32)       128       \n ormalization)                                                   \n\n=================================================================\nTotal params: 9,696\nTrainable params: 9,632\nNon-trainable params: 64\n_________________________________________________________________\nNone\n</code>\n</pre> <pre>\n<code>2023-04-03 09:08:51.414197: I tensorflow/core/platform/cpu_feature_guard.cc:193] 
…
ention to the (type) and Output Shape columns. The Layer name beside the type may be different depending on how many times you ran the cell (e.g. <code>input_7</code> can be <code>input_1</code>)</p> <pre><code>Model: \"functional_1\"\n_________________________________________________________________\nLayer (type)                 Output Shape              Param #   \n=================================================================\ninput_1 (InputLayer)         [(None, 64, 84, 1)]       0         \n_________________________________________________________________\nconv2d (Conv2D)              (None, 64, 84, 32)        320       \n_________________________________________________________________\nleaky_re_lu (LeakyReLU)      (None, 64, 84, 32)        0         \n_________________________________________________________________\nconv2d_1 (Conv2D)            (None, 64, 84, 32)        9248      \n_________________________________________________________________\nleaky_re_lu_1 (LeakyReLU)    (None, 64, 84, 32)        0         \n_________________________________________________________________\nmax_pooling2d (MaxPooling2D) (None, 32, 42, 32)        0         \n_________________________________________________________________\nbatch_normalization (BatchNo (None, 32, 42, 32)        128       \n=================================================================\nTotal params: 9,696\nTrainable params: 9,632\nNon-trainable params: 64\n_________________________________________________________________\nNone\n</code></pre> <p></p> <pre><code>def FCN8(input_height=64, input_width=84):\n'''\n    Defines the downsampling path of the image segmentation model.\n\n    Args:\n      input_heig
…
_input\n</code></pre> <pre><code># TEST CODE:\n\ntest_convs, test_img_input = FCN8()\ntest_model = tf.keras.Model(inputs=test_img_input, outputs=[test_convs, test_img_input])\n\nprint(test_model.summary())\n\ndel test_convs, test_img_input, test_model\n</code></pre> <pre>\n<code>Model: \"model_3\"\n_________________________________________________________________\n Layer (type)                Output Shape              Param #   \n=================================================================\n input_4 (InputLayer)        [(None, 64, 84, 1)]       0         \n\n zero_padding2d_2 (ZeroPaddi  (None, 64, 96, 1)        0         \n ng2D)                                                           \n\n conv2d_22 (Conv2D)          (None, 64, 96, 32)        320       \n\n leaky_re_lu_22 (LeakyReLU)  (None, 64, 96, 32)        0         \n\n conv2d_23 (Conv2D)          (None, 64, 96, 32)        9248      \n\n leaky_re_lu_23 (LeakyReLU)  (None, 64, 96, 32)        0         \n\n max_pooling2d_11 (MaxPoolin  (None, 32, 48, 32)       0         \n g2D)                                                            \n\n batch_normalization_11 (Bat  (None, 32, 48, 32)       128       \n chNormalization)                                                \n\n conv2d_24 (Conv2D)          (None, 32, 48, 64)        18496     \n\n leaky_re_lu_24 (LeakyReLU)  (None, 32, 48, 64)        0         \n\n conv2d_25 (Conv2D)          (None, 32, 48, 64)        36928     \n\n leaky_re_lu_25 (LeakyReLU)  (None, 32, 48, 64)        0         \n\n max_pooling2d_12 (MaxPoolin  (None, 16, 24, 64)       0         \n g2D)                                                            \n\n batch_normalization_12 (Bat  (None, 16, 24, 64)       256       \n chNormalization)                                                \n\n conv2d_26 (Conv2D)          (None, 16, 24, 128)       73856     \n\n leaky_re_lu_26 (LeakyReLU)  (None, 16, 24, 128)       0         \n\n conv2d_27 (Conv2D)          (None, 16, 24, 128)       147584    \n\n leaky_re_lu_27 (LeakyReLU)  (None, 16, 24, 128)       0         \n\n max_pooling2d_13 (MaxPoolin  (None, 8, 12, 128)       0         \n g2D)                                                            \n\n batch_normalization_13 (Bat  (None, 8, 12, 128)       512       \n chNormalization)                                                \n\n conv2d_28 (Conv2D)          (None, 8, 12, 256)        295168    \n\n leaky_re_lu_28 (LeakyReLU)  (None, 8, 12, 256)        0         \n\n conv2d_29 (Conv2D)          (None, 8, 12, 256)        590080    \n\n leaky_re_lu_29 (LeakyReLU)  (None, 8, 12, 256)        0         \n\n max_pooling2d_14 (MaxPoolin  (None, 4, 6, 256)        0         \n g2D)                                                            \n\n batch_normalization_14 (Bat  (None, 4, 6, 256)        1024      \n chNormalization)                                                \n\n conv2d_30 (Conv2D)          (None, 4, 6, 256)         590080    \n\n leaky_re_lu_30 (LeakyReLU)  (None, 4, 6, 256)         0         \n\n conv2d_31 (Conv2D)          (None, 4, 6, 256)         590080    \n\n leaky_re_lu_31 (LeakyReLU)  (None, 4, 6, 256)         0         \n\n max_pooling2d_15 (MaxPoolin  (None, 2, 3, 256)        0         \n g2D)                                                            \n\n batch_normalization_15 (Bat  (None, 2, 3, 256)        1024      \n chNormalization)                                                \n\n=================================================================\nTotal params: 2,354,784\nTrainable params: 2,353,312\nNon-trainable params: 1,472\n_________________________________________________________________\nNone\n</code>\n</pre> <p>Expected Output:</p> <p>You should see the layers of your <code>conv_block()</code> being repeated 5 times like the output below.</p> <pre><code>Model: \"functional_3\"\n_________________________________________________________________\nLayer (type)                 Output Shape              Param #   \n=================================================================\ninput_3 (InputLayer)         [(None, 64, 84, 1)]       0         \n_________________________________________________________________\nzero_padding2d (ZeroPadding2 (None, 64, 96, 1)         0         \n_________________________________________________________________\nconv2d_2 (Conv2D)            (None, 64, 96, 32)        320       \n_________________________________________________________________\nleaky_re_lu_2 (LeakyReLU)    (None, 64, 96, 32)        0         \n_________________________________________________________________\nconv2d_3 (Conv2D)            (None, 64, 96, 32)        9248      \n_________________________________________________________________\nleaky_re_lu_3 (LeakyReLU)    (None, 64, 96, 32)        0         \n_________________________________________________________________\nmax_pooling2d_1 (MaxPooling2 (None, 32, 48, 32)        0         \n_________________________________________________________________\nbatch_normalization_1 (Batch (None, 32, 48, 32)        128       \n_________________________________________________________________\nconv2d_4 (Conv2D)            (None, 32, 48, 64)        18496     \n_________________________________________________________________\nleaky_re_lu_4 (LeakyReLU)    (None, 32, 48, 64)        0         \n_________________________________________________________________\nconv2d_5 (Conv2D)            (None, 32, 48, 64)        36928     \n_________________________________________________________________\nleaky_re_lu_5 (LeakyReLU)    (None, 32, 48, 64)        0         \n_________________________________________________________________\nmax_pooling2d_2 (MaxPooling2 (None, 16, 24, 64)        0         \n_________________________________________________________________\nbatch_normalization_2 (Batch (None, 16, 24, 64)        256       \n_________________________________________________________________\nconv2d_6 (Conv2D)            (None, 16, 24, 128)       73856     \n_________________________________________________________________\nleaky_re_lu_6 (LeakyReLU)    (None, 16, 24, 128)       0         \n_________________________________________________________________\nconv2d_7 (Conv2D)            (None, 16, 24, 128)       147584    \n_________________________________________________________________\nleaky_re_lu_7 (LeakyReLU)    (None, 16, 24, 128)       0         \n_________________________________________________________________\nmax_pooling2d_3 (MaxPooling2 (None, 8, 12, 128)        0         \n_________________________________________________________________\nbatch_normalization_3 (Batch (None, 8, 12, 128)        512       \n_________________________________________________________________\nconv2d_8 (Conv2D)            (None, 8, 12, 256)        295168    \n_________________________________________________________________\nleaky_re_lu_8 (LeakyReLU)    (None, 8, 12, 256)        0         \n_________________________________________________________________\nconv2d_9 (Conv2D)            (None, 8, 12, 256)        590080    \n_________________________________________________________________\nleaky_re_lu_9 (LeakyReLU)    (None, 8, 12, 256)        0         \n_________________________________________________________________\nmax_pooling2d_4 (MaxPooling2 (None, 4, 6, 256)         0         \n_________________________________________________________________\nbatch_normalization_4 (Batch (None, 4, 6, 256)         1024      \n_________________________________________________________________\nconv2d_10 (Conv2D)           (None, 4, 6, 256)         590080    \n_________________________________________________________________\nleaky_re_lu_10 (LeakyReLU)   (None, 4, 6, 256)         0         \n_________________________________________________________________\nconv2d_11 (Conv2D)           (None, 4, 6, 256)         590080    \n_________________________________________________________________\nleaky_re_lu_11 (LeakyReLU)   (None, 4, 6, 256)         0         \n_________________________________________________________________\nmax_pooling2d_5 (MaxPooling2 (None, 2, 3, 256)         0         \n_________________________________________________________________\nbatch_normalization_5 (Batch (None, 2, 3, 256)         1024      \n=================================================================\nTotal params: 2,354,784\nTrainable params: 2,353,312\nNon-trainable params: 1,472\n_________________________________________________________________\nNone\n</code></pre> <p></p> <pre><code>def fcn8_decoder(convs, n_classes):\n  # features from the encoder stage\n  f3, f4, f5 = convs\n\n  # number of filters\n  n = 512\n\n  
…
oder output)\nmodel = tf.keras.Model(inputs = img_input, outputs = dec_op)\n</code></pre> <pre><code>model.summary()\n</code></pre> <pre>\n<code>Model: \"model_4\"\n__________________________________________________________________________________________________\n Layer (type)                   Output Shape         Param #     Connected to                     \n==================================================================================================\n input_10 (InputLayer)          [(None, 64, 84, 1)]  0           []                               \n\n zero_padding2d_8 (ZeroPadding2  (None, 64, 96, 1)   0           ['input_10[0][0]']               \n D)                                                                                               \n\n conv2d_92 (Conv2D)             (None, 64, 96, 32)   320         ['zero_padding2d_8[0][0]']       \n\n leaky_re_lu_82 (LeakyReLU)     (None, 64, 96, 32)   0           ['conv2d_92[0][0]']              \n\n conv2d_93 (Conv2D)             (None, 64, 96, 32)   9248        ['leaky_re_lu_82[0][0]']         \n\n leaky_re_lu_83 (LeakyReLU)     (None, 64, 96, 32)   0           ['conv2d_93[0][0]']              \n\n max_pooling2d_41 (MaxPooling2D  (None, 32, 48, 32)  0           ['leaky_re_lu_83[0][0]']         \n )                                                                                                \n\n batch_normalization_41 (BatchN  (None, 32, 48, 32)  128         ['max_pooling2d_41[0][0]']       \n ormalization)                                                                                    \n\n conv2d_94 (Conv2D)             (None, 32, 48, 64)   18496       ['batch_normalization_41[0][0]'] \n\n leaky_re_lu_84 (LeakyReLU)     (None, 32, 48, 64)   0           ['conv2d_94[0][0]']              \n\n conv2d_95 (Conv2D)             (None, 32, 48, 64)   36928       ['leaky_re_lu_84[0][0]']         \n\n leaky_re_lu_85 (LeakyReLU)     (None, 32, 48, 64)   0           ['conv2d_95[0][0]']              \n\n max_pooling2d_42 (MaxPooling2D  (None, 16, 24, 64)  0           ['leaky_re_lu_85[0][0]']         \n )                                                                                                \n\n batch_normalization_42 (BatchN  (None, 16, 24, 64)  256         ['max_pooling2d_42[0][0]']       \n ormalization)                                                                                    \n\n conv2d_96 (Conv2D)             (None, 16, 24, 128)  73856       ['batch_normalization_42[0][0]'] \n\n leaky_re_lu_86 (LeakyReLU)     (None, 16, 24, 128)  0           ['conv2d_96[0][0]']              \n\n conv2d_97 (Conv2D)             (None, 16, 24, 128)  147584      ['leaky_re_lu_86[0][0]']         \n\n leaky_re_lu_87 (LeakyReLU)     (None, 16, 24, 128)  0           ['conv2d_97[0][0]']              \n\n max_pooling2d_43 (MaxPooling2D  (None, 8, 12, 128)  0           ['leaky_re_lu_87[0][0]']         \n )                                                                                                \n\n batch_normalization_43 (BatchN  (None, 8, 12, 128)  512         ['max_pooling2d_43[0][0]']       \n ormalization)                                                                                    \n\n conv2d_98 (Conv2D)             (None, 8, 12, 256)   295168      ['batch_normalization_43[0][0]'] \n\n leaky_re_lu_88 (LeakyReLU)     (None, 8, 12, 256)   0           ['conv2d_98[0][0]']              \n\n conv2d_99 (Conv2D)             (None, 8, 12, 256)   590080      ['leaky_re_lu_88[0][0]']         \n\n leaky_re_lu_89 (LeakyReLU)     (None, 8, 12, 256)   0           ['conv2d_99[0][0]']              \n\n max_pooling2d_44 (MaxPooling2D  (None, 4, 6, 256)   0           ['leaky_re_lu_89[0][0]']         \n )                                                                                                \n\n batch_normalization_44 (BatchN  (None, 4, 6, 256)   1024        ['max_pooling2d_44[0][0]']       \n ormalization)                                                                                    \n\n conv2d_100 (Conv2D)            (None, 4, 6, 256)    590080      ['batch_normalization_44[0][0]'] \n\n leaky_re_lu_90 (LeakyReLU)     (None, 4, 6, 256)    0           ['conv2d_100[0][0]']             \n\n conv2d_101 (Conv2D)            (None, 4, 6, 256)    590080      ['leaky_re_lu_90[0][0]']         \n\n leaky_re_lu_91 (LeakyReLU)     (None, 4, 6, 256)    0           ['conv2d_101[0][0]']             \n\n max_pooling2d_45 (MaxPooling2D  (None, 2, 3, 256)   0           ['leaky_re_lu_91[0][0]']         \n )                                                                                                \n\n batch_normalization_45 (BatchN  (None, 2, 3, 256)   1024        ['max_pooling2d_45[0][0]']       \n ormalization)                                                                                    \n\n conv6 (Conv2D)                 (None, 2, 3, 512)    6423040     ['batch_normalization_45[0][0]'] \n\n dropout_8 (Dropout)            (None, 2, 3, 512)    0           ['conv6[0][0]']                  \n\n conv7 (Conv2D)                 (None, 2, 3, 512)    262656      ['dropout_8[0][0]']              \n\n dropout_9 (Dropout)            (None, 2, 3, 512)    0           ['conv7[0][0]']                  \n\n conv2d_102 (Conv2D)            (None, 2, 3, 11)     5643        ['dropout_9[0][0]']              \n\n conv2d_transpose_9 (Conv2DTran  (None, 6, 8, 11)    1936        ['conv2d_102[0][0]']             \n spose)                                                                                           \n\n cropping2d_8 (Cropping2D)      (None, 4, 6, 11)     0           ['conv2d_transpose_9[0][0]']     \n\n conv2d_103 (Conv2D)            (None, 4, 6, 11)     2827        ['batch_normalization_44[0][0]'] \n\n add_6 (Add)                    (None, 4, 6, 11)     0           ['cropping2d_8[0][0]',           \n                                                                  'conv2d_103[0][0]']             \n\n conv2d_transpose_10 (Conv2DTra  (None, 10, 14, 11)  1936        ['add_6[0][0]']                  \n nspose)                                                                                          \n\n cropping2d_9 (Cropping2D)      (None, 8, 12, 11)    0           ['conv2d_transpose_10[0][0]']    \n\n conv2d_104 (Conv2D)            (None, 8, 12, 11)    1419        ['batch_normalization_43[0][0]'] \n\n add_7 (Add)                    (None, 8, 12, 11)    0           ['cropping2d_9[0][0]',           \n                                                                  'conv2d_104[0][0]']             \n\n conv2d_transpose_11 (Conv2DTra  (None, 64, 96, 11)  7744        ['add_7[0][0]']                  \n nspose)                                                                                          \n\n cropping2d_10 (Cropping2D)     (None, 64, 84, 11)   0           ['conv2d_transpose_11[0][0]']    \n\n activation_3 (Activation)      (None, 64, 84, 11)   0           ['cropping2d_10[0][0]']          \n\n==================================================================================================\nTotal params: 9,061,985\nTrainable params: 9,060,513\nNon-trainable params: 1,472\n__________________________________________________________________________________________________\n</code>\n</pre> <p></p> <pre><code>### START CODE HERE ###\nmodel.com
…
riment with other types of decoders.\n  return (p1, p2, p3, p4, c7)\n</code></pre> <pre><code>def fcn8_decoder(convs, n_classes):\n'''\n  Defines the FCN 8 decoder.\n\n  Args:\n    convs (tuple of tensors) - output of the encoder network\n    n_classes (int) - number of classes\n\n  Returns:\n    tensor with shape (height, width, n_classes) containing class probabilities\…
640      \n\n max_pooling2d_1 (MaxPooling  (None, 75, 75, 32)       0         \n 2D)                                                             \n\n conv2d_2 (Conv2D)           (None, 75, 75, 64)        18496     \n\n max_pooling2d_2 (MaxPooling  (None, 37, 37, 64)       0         \n 2D)                                                             \n\n conv2d_3 (Conv2D)           (None, 37, 37, 128)       73856     \n\n global_average_pooling2d (G  (None, 128)              0         \n lobalAveragePooling2D)                                          \n\n dense (Dense)               (None, 2)                 258       \n\n=================================================================\nTotal params: 97,698\nTrainable params: 97,698\nNon-trainable params: 0\n_________________________________________________________________\n</code>\n</pre> <p>Expected Output:</p> <pre><code>Model: \"sequential\"\n_________________________________________________________________\nLayer (type)                 Output Shape              Param #   \n=================================================================\nconv2d (Conv2D)              (None, 300, 300, 16)      448       \n_________________________________________________________________\nmax_pooling2d (MaxPooling2D) (None, 150, 150, 16)      0         \n_________________________________________________________________\nconv2d_1 (Conv2D)            (None, 150, 150, 32)      4640      \n_________________________________________________________________\nmax_pooling2d_1 (MaxPooling2 (None, 75, 75, 32)        0         \n_________________________________________________________________\nconv2d_2 (Conv2D)            (None, 75, 75, 64)        18496     \n_________________________________________________________________\nmax_pooling2d_2 (MaxPooling2 (None, 37, 37, 64)        0         \n_________________________________________________________________\nconv2d_3 (Conv2D)            (None, 37, 37, 128)       73856     \n_________________________________________________________________\nglobal_average_pooling2d (Gl (None, 128)               0         \n_________________________________________________________________\ndense (Dense)                (None, 2)                 258       \n=================================================================\nTotal params: 97,698\nTrainable params: 97,698\nNon-trainable params: 0\n_________________________________________________________________\n</code></pre> <pre><code>def do_salience(image, model, label, prefix):\n'''\n  Generates the saliency map of a given image.\n\n  Args:\n    image (file) -- picture that the model will 
…
 147, 147, 64  18432       ['activation_1[0][0]']           \n                                )                                                                 \n\n batch_normalization_2 (BatchNo  (None, 147, 147, 64  192        ['conv2d_2[0][0]']               \n rmalization)                   )                                                                 \n\n activation_2 (Activation)      (None, 147, 147, 64  0           ['batch_normalization_2[0][0]']  \n                                )                                                                 \n\n max_pooling2d (MaxPooling2D)   (None, 73, 73, 64)   0           ['activation_2[0][0]']           \n\n conv2d_3 (Conv2D)              (None, 73, 73, 80)   5120        ['max_pooling2d[0][0]']          \n\n batch_normalization_3 (BatchNo  (None, 73, 73, 80)  240         ['conv2d_3[0][0]']               \n rmalization)                                                                                     \n\n activation_3 (Activation)      (None, 73, 73, 80)   0           ['batch_normalization_3[0][0]']  \n\n conv2d_4 (Conv2D)              (None, 71, 71, 192)  138240      ['activation_3[0][0]']           \n\n batch_normalization_4 (BatchNo  (None, 71, 71, 192)  576        ['conv2d_4[0][0]']               \n rmalization)                                                                                     \n\n activation_4 (Activation)      (None, 71, 71, 192)  0           ['batch_normalization_4[0][0]']  \n\n max_pooling2d_1 (MaxPooling2D)  (None, 35, 35, 192)  0          ['activation_4[0][0]']           \n\n conv2d_8 (Conv2D)              (None, 35, 35, 64)   12288       ['max_pooling2d_1[0][0]']        \n\n batch_normalization_8 (BatchNo  (None, 35, 35, 64)  192         ['conv2d_8[0][0]']               \n rmalization)                                                                                     \n\n activation_8 (Activation)      (None, 35, 35, 64)   0           ['batch_normalization_8[0][0]']  \n\n conv2d_6 (Conv2D)              (None, 35, 35, 48)   9216        ['max_pooling2d_1[0][0]']        \n\n conv2d_9 (Conv2D)              (None, 35, 35, 96)   55296       ['activation_8[0][0]']           \n\n batch_normalization_6 (BatchNo  (None, 35, 35, 48)  144         ['conv2d_6[0][0]']               \n rmalization)                                                                                     \n\n batch_normalization_9 (BatchNo  (None, 35, 35, 96)  288         ['conv2d_9[0][0]']               \n rmalization)                                                                                     \n\n activation_6 (Activation)      (None, 35, 35, 48)   0           ['batch_normalization_6[0][0]']  \n\n activation_9 (Activation)      (None, 35, 35, 96)   0           ['batch_normalization_9[0][0]']  \n\n average_pooling2d (AveragePool  (None, 35, 35, 192)  0          ['max_pooling2d_1[0][0]']        \n ing2D)                                                                                           \n\n conv2d_5 (Conv2D)              (None, 35, 35, 64)   12288       ['max_pooling2d_1[0][0]']        \n\n conv2d_7 (Conv2D)              (None, 35, 35, 64)   76800       ['activation_6[0][0]']           \n\n conv2d_10 (Conv2D)             (None, 35, 35, 96)   82944       ['activation_9[0][0]']           \n\n conv2d_11 (Conv2D)             (None, 35, 35, 32)   6144        ['average_pooling2d[0][0]']      \n\n batch_normalization_5 (BatchNo  (None, 35, 35, 64)  192         ['conv2d_5[0][0]']               \n rmalization)                                                                                     \n\n batch_normalization_7 (BatchNo  (None, 35, 35, 64)  192         ['conv2d_7[0][0]']               \n rmalization)                                                                                     \n\n batch_normalization_10 (BatchN  (None, 35, 35, 96)  288         ['conv2d_10[0][0]']              \n ormalization)                                                                                    \n\n batch_normalization_11 (BatchN  (None, 35, 35, 32)  96          ['conv2d_11[0][0]']              \n ormalization)                                                                                    \n\n activation_5 (Activation)      (None, 35, 35, 64)   0           ['batch_normalization_5[0][0]']  \n\n activation_7 (Activation)      (None, 35, 35, 64)   0           ['batch_normalization_7[0][0]']  \n\n activation_10 (Activation)     (None, 35, 35, 96)   0           ['batch_normalization_10[0][0]'] \n\n activation_11 (Activation)     (None, 35, 35, 32)   0           ['batch_normalization_11[0][0]'] \n\n mixed0 (Concatenate)           (None, 35, 35, 256)  0           ['activation_5[0][0]',           \n                                                                  'activation_7[0][0]',           \n                                                                  'activation_10[0][0]',          \n                                                                  'activation_11[0][0]']          \n\n conv2d_15 (Conv2D)             (None, 35, 35, 64)   16384       ['mixed0[0][0]']                 \n\n batch_normalization_15 (BatchN  (None, 35, 35, 64)  192         ['conv2d_15[0][0]']              \n ormalization)                                                                                    \n\n activation_15 (Activation)     (None, 35, 35, 64)   0           ['batch_normalization_15[0][0]'] \n\n conv2d_13 (Conv2D)             (None, 35, 35, 48)   12288       ['mixed0[0][0]']                 \n\n conv2d_16 (Conv2D)             (None, 35, 35, 96)   55296       ['activation_15[0][0]']          \n\n batch_normalization_13 (BatchN  (None, 35, 35, 48)  144         ['conv2d_13[0][0]']              \n ormalization)                                                                                    \n\n batch_normalization_16 (BatchN  (None, 35, 35, 96)  288         ['conv2d_16[0][0]']              \n ormalization)                                                                                    \n\n activation_13 (Activation)     (None, 35, 35, 48)   0           ['batch_normalization_13[0][0]'] \n\n activation_16 (Activation)     (None, 35, 35, 96)   0           ['batch_normalization_16[0][0]'] \n\n average_pooling2d_1 (AveragePo  (None, 35, 35, 256)  0          ['mixed0[0][0]']                 \n oling2D)                                                                                         \n\n conv2d_12 (Conv2D)             (None, 35, 35, 64)   16384       ['mixed0[0][0]']                 \n\n conv2d_14 (Conv2D)             (None, 35, 35, 64)   76800       ['activation_13[0][0]']          \n\n conv2d_17 (Conv2D)             (None, 35, 35, 96)   82944       ['activation_16[0][0]']          \n\n conv2d_18 (Conv2D)             (None, 35, 35, 64)   16384       ['average_pooling2d_1[0][0]']    \n\n batch_normalization_12 (BatchN  (None, 35, 35, 64)  192         ['conv2d_12[0][0]']              \n ormalization)                                                                                    \n\n batch_normalization_14 (BatchN  (None, 35, 35, 64)  192         ['conv2d_14[0][0]']              \n ormalization)                                                                                    \n\n batch_normalization_17 (BatchN  (None, 35, 35, 96)  288         ['conv2d_17[0][0]']              \n ormalization)                                                                                    \n\n batch_normalization_18 (BatchN  (None, 35, 35, 64)  192         ['conv2d_18[0][0]']              \n ormalization)                                                                                    \n\n activation_12 (Activation)     (None, 35, 35, 64)   0           ['batch_normalization_12[0][0]'] \n\n activation_14 (Activation)     (None, 35, 35, 64)   0           ['batch_normalization_14[0][0]'] \n\n activation_17 (Activation)     (None, 35, 35, 96)   0           ['batch_normalization_17[0][0]'] \n\n activation_18 (Activation)     (None, 35, 35, 64)   0           ['batch_normalization_18[0][0]'] \n\n mixed1 (Concatenate)           (None, 35, 35, 288)  0           ['activation_12[0][0]',          \n                                                                  'activation_14[0][0]',          \n                                                                  'activation_17[0][0]',          \n                                                                  'activation_18[0][0]']          \n\n conv2d_22 (Conv2D)             (None, 35, 35, 64)   18432       ['mixed1[0][0]']                 \n\n batch_normalization_22 (BatchN  (None, 35, 35, 64)  192         ['conv2d_22[0][0]']              \n ormalization)                                                                                    \n\n activation_22 (Activation)     (None, 35, 35, 64)   0           ['batch_normalization_22[0][0]'] \n\n conv2d_20 (Conv2D)             (None, 35, 35, 48)   13824       ['mixed1[0][0]']                 \n\n conv2d_23 (Conv2D)             (None, 35, 35, 96)   55296       ['activation_22[0][0]']          \n\n batch_normalization_20 (BatchN  (None, 35, 35, 48)  144         ['conv2d_20[0][0]']              \n ormalization)                                                                                    \n\n batch_normalization_23 (BatchN  (None, 35, 35, 96)  288         ['conv2d_23[0][0]']              \n ormalization)                                                                                    \n\n activation_20 (Activation)     (None, 35, 35, 48)   0           ['batch_normalization_20[0][0]'] \n\n activation_23 (Activation)     (None, 35, 35, 96)   0           ['batch_normalization_23[0][0]'] \n\n average_pooling2d_2 (AveragePo  (None, 35, 35, 288)  0          ['mixed1[0][0]']                 \n oling2D)                                                                                         \n\n conv2d_19 (Conv2D)             (None, 35, 35, 64)   18432       ['mixed1[0][0]']                 \n\n conv2d_21 (Conv2D)             (None, 35, 35, 64)   76800       ['activation_20[0][0]']          \n\n conv2d_24 (Conv2D)             (None, 35, 35, 96)   82944       ['activation_23[0][0]']          \n\n conv2d_25 (Conv2D)             (None, 35, 35, 64)   18432       ['average_pooling2d_2[0][0]']    \n\n batch_normalization_19 (BatchN  (None, 35, 35, 64)  192         ['conv2d_19[0][0]']              \n ormalization)                                                                                    \n\n batch_normalization_21 (BatchN  (None, 35, 35, 64)  192         ['conv2d_21[0][0]']              \n ormalization)                                                                                    \n\n batch_normalization_24 (BatchN  (None, 35, 35, 96)  288         ['conv2d_24[0][0]']              \n ormalization)                                                                                    \n\n batch_normalization_25 (BatchN  (None, 35, 35, 64)  192         ['conv2d_25[0][0]']              \n ormalization)                                                                                    \n\n activation_19 (Activation)     (None, 35, 35, 64)   0           ['batch_normalization_19[0][0]'] \n\n activation_21 (Activation)     (None, 35, 35, 64)   0           ['batch_normalization_21[0][0]'] \n\n activation_24 (Activation)     (None, 35, 35, 96)   0           ['batch_normalization_24[0][0]'] \n\n activation_25 (Activation)     (None, 35, 35, 64)   0           ['batch_normalization_25[0][0]'] \n\n mixed2 (Concatenate)           (None, 35, 35, 288)  0           ['activation_19[0][0]',          \n                                                                  'activation_21[0][0]',          \n                                                                  'activation_24[0][0]',          \n                                                                  'activation_25[0][0]']          \n\n conv2d_27 (Conv2D)             (None, 35, 35, 64)   18432       ['mixed2[0][0]']                 \n\n batch_normalization_27 (BatchN  (None, 35, 35, 64)  192         ['conv2d_27[0][0]']              \n ormalization)                                                                                    \n\n activation_27 (Activation)     (None, 35, 35, 64)   0           ['batch_normalization_27[0][0]'] \n\n conv2d_28 (Conv2D)             (None, 35, 35, 96)   55296       ['activation_27[0][0]']          \n\n batch_normalization_28 (BatchN  (None, 35, 35, 96)  288         ['conv2d_28[0][0]']              \n ormalization)                                                                                    \n\n activation_28 (Activation)     (None, 35, 35, 96)   0           ['batch_normalization_28[0][0]'] \n\n conv2d_26 (Conv2D)             (None, 17, 17, 384)  995328      ['mixed2[0][0]']                 \n\n conv2d_29 (Conv2D)             (None, 17, 17, 96)   82944       ['activation_28[0][0]']          \n\n batch_normalization_26 (BatchN  (None, 17, 17, 384)  1152       ['conv2d_26[0][0]']              \n ormalization)                                                                                    \n\n batch_normalization_29 (BatchN  (None, 17, 17, 96)  288         ['conv2d_29[0][0]']              \n ormalization)                                                                                    \n\n activation_26 (Activation)     (None, 17, 17, 384)  0           ['batch_normalization_26[0][0]'] \n\n activation_29 (Activation)     (None, 17, 17, 96)   0           ['batch_normalization_29[0][0]'] \n\n max_pooling2d_2 (MaxPooling2D)  (None, 17, 17, 288)  0          ['mixed2[0][0]']                 \n\n mixed3 (Concatenate)           (None, 17, 17, 768)  0           ['activation_26[0][0]',          \n                                                                  'activation_29[0][0]',          \n                                                                  'max_pooling2d_2[0][0]']        \n\n conv2d_34 (Conv2D)             (None, 17, 17, 128)  98304       ['mixed3[0][0]']                 \n\n batch_normalization_34 (BatchN  (None, 17, 17, 128)  384        ['conv2d_34[0][0]']              \n ormalization)                                                                                    \n\n activation_34 (Activation)     (None, 17, 17, 128)  0           ['batch_normalization_34[0][0]'] \n\n conv2d_35 (Conv2D)             (None, 17, 17, 128)  114688      ['activation_34[0][0]']          \n\n batch_normalization_35 (BatchN  (None, 17, 17, 128)  384        ['conv2d_35[0][0]']              \n ormalization)                                                                                    \n\n activation_35 (Activation)     (None, 17, 17, 128)  0           ['batch_normalization_35[0][0]'] \n\n conv2d_31 (Conv2D)             (None, 17, 17, 128)  98304       ['mixed3[0][0]']                 \n\n conv2d_36 (Conv2D)             (None, 17, 17, 128)  114688      ['activation_35[0][0]']          \n\n batch_normalization_31 (BatchN  (None, 17, 17, 128)  384        ['conv2d_31[0][0]']              \n ormalization)                                                                                    \n\n batch_normalization_36 (BatchN  (None, 17, 17, 128)  384        ['conv2d_36[0][0]']              \n ormalization)                                                                                    \n\n activation_31 (Activation)     (None, 17, 17, 128)  0           ['batch_normalization_31[0][0]'] \n\n activation_36 (Activation)     (None, 17, 17, 128)  0           ['batch_normalization_36[0][0]'] \n\n conv2d_32 (Conv2D)             (None, 17, 17, 128)  114688      ['activation_31[0][0]']          \n\n conv2d_37 (Conv2D)             (None, 17, 17, 128)  114688      ['activation_36[0][0]']          \n\n batch_normalization_32 (BatchN  (None, 17, 17, 128)  384        ['conv2d_32[0][0]']              \n ormalization)                                                                                    \n\n batch_normalization_37 (BatchN  (None, 17, 17, 128)  384        ['conv2d_37[0][0]']              \n ormalization)                                                                                    \n\n activation_32 (Activation)     (None, 17, 17, 128)  0           ['batch_normalization_32[0][0]'] \n\n activation_37 (Activation)     (None, 17, 17, 128)  0           ['batch_normalization_37[0][0]'] \n\n average_pooling2d_3 (AveragePo  (None, 17, 17, 768)  0          ['mixed3[0][0]']                 \n oling2D)                                                                                         \n\n conv2d_30 (Conv2D)             (None, 17, 17, 192)  147456      ['mixed3[0][0]']                 \n\n conv2d_33 (Conv2D)             (None, 17, 17, 192)  172032      ['activation_32[0][0]']          \n\n conv2d_38 (Conv2D)             (None, 17, 17, 192)  172032      ['activation_37[0][0]']          \n\n conv2d_39 (Conv2D)             (None, 17, 17, 192)  147456      ['average_pooling2d_3[0][0]']    \n\n batch_normalization_30 (BatchN  (None, 17, 17, 192)  576        ['conv2d_30[0][0]']              \n ormalization)                                                                                    \n\n batch_normalization_33 (BatchN  (None, 17, 17, 192)  576        ['conv2d_33[0][0]']              \n ormalization)                                                                                    \n\n batch_normalization_38 (BatchN  (None, 17, 17, 192)  576        ['conv2d_38[0][0]']              \n ormalization)                                                                                    \n\n batch_normalization_39 (BatchN  (None, 17, 17, 192)  576        ['conv2d_39[0][0]']              \n ormalization)                                                                                    \n\n activation_30 (Activation)     (None, 17, 17, 192)  0           ['batch_normalization_30[0][0]'] \n\n activation_33 (Activation)     (None, 17, 17, 192)  0           ['batch_normalization_33[0][0]'] \n\n activation_38 (Activation)     (None, 17, 17, 192)  0           ['batch_normalization_38[0][0]'] \n\n activation_39 (Activation)     (None, 17, 17, 192)  0           ['batch_normalization_39[0][0]'] \n\n mixed4 (Concatenate)           (None, 17, 17, 768)  0           ['activation_30[0][0]',          \n                                                                  'activation_33[0][0]',          \n                                                                  'activation_38[0][0]',          \n                                                                  'activation_39[0][0]']          \n\n conv2d_44 (Conv2D)             (None, 17, 17, 160)  122880      ['mixed4[0][0]']                 \n\n batch_normalization_44 (BatchN  (None, 17, 17, 160)  480        ['conv2d_44[0][0]']              \n ormalization)                                                                                    \n\n activation_44 (Activation)     (None, 17, 17, 160)  0           ['batch_normalization_44[0][0]'] \n\n conv2d_45 (Conv2D)             (None, 17, 17, 160)  179200      ['activation_44[0][0]']          \n\n batch_normalization_45 (BatchN  (None, 17, 17, 160)  480        ['conv2d_45[0][0]']              \n ormalization)                                                                                    \n\n activation_45 (Activation)     (None, 17, 17, 160)  0           ['batch_normalization_45[0][0]'] \n\n conv2d_41 (Conv2D)             (None, 17, 17, 160)  122880      ['mixed4[0][0]']                 \n\n conv2d_46 (Conv2D)             (None, 17, 17, 160)  179200      ['activation_45[0][0]']          \n\n batch_normalization_41 (BatchN  (None, 17, 17, 160)  480        ['conv2d_41[0][0]']              \n ormalization)                                                                                    \n\n batch_normalization_46 (BatchN  (None, 17, 17, 160)  480        ['conv2d_46[0][0]']              \n ormalization)                                                                                    \n\n activation_41 (Activation)     (None, 17, 17, 160)  0           ['batch_normalization_41[0][0]'] \n\n activation_46 (Activation)     (None, 17, 17, 160)  0           ['batch_normalization_46[0][0]'] \n\n conv2d_42 (Conv2D)             (None, 17, 17, 160)  179200      ['activation_41[0][0]']          \n\n conv2d_47 (Conv2D)             (None, 17, 17, 160)  179200      ['activation_46[0][0]']          \n\n batch_normalization_42 (BatchN  (None, 17, 17, 160)  480        ['conv2d_42[0][0]']              \n ormalization)                                                                                    \n\n batch_normalization_47 (BatchN  (None, 17, 17, 160)  480        ['conv2d_47[0][0]']              \n ormalization)                                                                                    \n\n activation_42 (Activation)     (None, 17, 17, 160)  0           ['batch_normalization_42[0][0]'] \n\n activation_47 (Activation)     (None, 17, 17, 160)  0           ['batch_normalization_47[0][0]'] \n\n average_pooling2d_4 (AveragePo  (None, 17, 17, 768)  0          ['mixed4[0][0]']                 \n oling2D)                                                                                         \n\n conv2d_40 (Conv2D)             (None, 17, 17, 192)  147456      ['mixed4[0][0]']                 \n\n conv2d_43 (Conv2D)             (None, 17, 17, 192)  215040      ['activation_42[0][0]']          \n\n conv2d_48 (Conv2D)             (None, 17, 17, 192)  215040      ['activation_47[0][0]']          \n\n conv2d_49 (Conv2D)             (None, 17, 17, 192)  147456      ['average_pooling2d_4[0][0]']    \n\n batch_normalization_40 (BatchN  (None, 17, 17, 192)  576        ['conv2d_40[0][0]']              \n ormalization)                                                                                    \n\n batch_normalization_43 (BatchN  (None, 17, 17, 192)  576        ['conv2d_43[0][0]']              \n ormalization)                                                                                    \n\n batch_normalization_48 (BatchN  (None, 17, 17, 192)  576        ['conv2d_48[0][0]']              \n ormalization)                                                                                    \n\n batch_normalization_49 (BatchN  (None, 17, 17, 192)  576        ['conv2d_49[0][0]']              \n ormalization)                                                                                    \n\n activation_40 (Activation)     (None, 17, 17, 192)  0           ['batch_normalization_40[0][0]'] \n\n activation_43 (Activation)     (None, 17, 17, 192)  0           ['batch_normalization_43[0][0]'] \n\n activation_48 (Activation)     (None, 17, 17, 192)  0           ['batch_normalization_48[0][0]'] \n\n activation_49 (Activation)     (None, 17, 17, 192)  0           ['batch_normalization_49[0][0]'] \n\n mixed5 (Concatenate)           (None, 17, 17, 768)  0           ['activation_40[0][0]',          \n                                                                  'activation_43[0][0]',          \n                                                                  'activation_48[0][0]',          \n                                                                  'activation_49[0][0]']          \n\n conv2d_54 (Conv2D)             (None, 17, 17, 160)  122880      ['mixed5[0][0]']                 \n\n batch_normalization_54 (BatchN  (None, 17, 17, 160)  480        ['conv2d_54[0][0]']              \n ormalization)                                                                                    \n\n activation_54 (Activation)     (None, 17, 17, 160)  0           ['batch_normalization_54[0][0]'] \n\n conv2d_55 (Conv2D)             (None, 17, 17, 160)  179200      ['activation_54[0][0]']          \n\n batch_normalization_55 (BatchN  (None, 17, 17, 160)  480        ['conv2d_55[0][0]']              \n ormalization)                                                                                    \n\n activation_55 (Activation)     (None, 17, 17, 160)  0           ['batch_normalization_55[0][0]'] \n\n conv2d_51 (Conv2D)             (None, 17, 17, 160)  122880      ['mixed5[0][0]']                 \n\n conv2d_56 (Conv2D)             (None, 17, 17, 160)  179200      ['activation_55[0][0]']          \n\n batch_normalization_51 (BatchN  (None, 17, 17, 160)  480        ['conv2d_51[0][0]']              \n ormalization)                                                                                    \n\n batch_normalization_56 (BatchN  (None, 17, 17, 160)  480        ['conv2d_56[0][0]']              \n ormalization)                                                                                    \n\n activation_51 (Activation)     (None, 17, 17, 160)  0           ['batch_normalization_51[0][0]'] \n\n activation_56 (Activation)     (None, 17, 17, 160)  0           ['batch_normalization_56[0][0]'] \n\n conv2d_52 (Conv2D)             (None, 17, 17, 160)  179200      ['activation_51[0][0]']          \n\n conv2d_57 (Conv2D)             (None, 17, 17, 160)  179200      ['activation_56[0][0]']          \n\n batch_normalization_52 (BatchN  (None, 17, 17, 160)  480        ['conv2d_52[0][0]']              \n ormalization)                                                                                    \n\n batch_normalization_57 (BatchN  (None, 17, 17, 160)  480        ['conv2d_57[0][0]']              \n ormalization)                                                                                    \n\n activation_52 (Activation)     (None, 17, 17, 160)  0           ['batch_normalization_52[0][0]'] \n\n activation_57 (Activation)     (None, 17, 17, 160)  0           ['batch_normalization_57[0][0]'] \n\n average_pooling2d_5 (AveragePo  (None, 17, 17, 768)  0          ['mixed5[0][0]']                 \n oling2D)                                                                                         \n\n conv2d_50 (Conv2D)             (None, 17, 17, 192)  147456      ['mixed5[0][0]']                 \n\n conv2d_53 (Conv2D)             (None, 17, 17, 192)  215040      ['activation_52[0][0]']          \n\n conv2d_58 (Conv2D)             (None, 17, 17, 192)  215040      ['activation_57[0][0]']          \n\n conv2d_59 (Conv2D)             (None, 17, 17, 192)  147456      ['average_pooling2d_5[0][0]']    \n\n batch_normalization_50 (BatchN  (None, 17, 17, 192)  576        ['conv2d_50[0][0]']              \n ormalization)                                                                                    \n\n batch_normalization_53 (BatchN  (None, 17, 17, 192)  576        ['conv2d_53[0][0]']              \n ormalization)                                                                                    \n\n batch_normalization_58 (BatchN  (None, 17, 17, 192)  576        ['conv2d_58[0][0]']              \n ormalization)                                                                                    \n\n batch_normalization_59 (BatchN  (None, 17, 17, 192)  576        ['conv2d_59[0][0]']              \n ormalization)                                                                                    \n\n activation_50 (Activation)     (None, 17, 17, 192)  0           ['batch_normalization_50[0][0]'] \n\n activation_53 (Activation)     (None, 17, 17, 192)  0           ['batch_normalization_53[0][0]'] \n\n activation_58 (Activation)     (None, 17, 17, 192)  0           ['batch_normalization_58[0][0]'] \n\n activation_59 (Activation)     (None, 17, 17, 192)  0           ['batch_normalization_59[0][0]'] \n\n mixed6 (Concatenate)           (None, 17, 17, 768)  0           ['activation_50[0][0]',          \n                                                                  'activation_53[0][0]',          \n                                                                  'activation_58[0][0]',          \n                                                                  'activation_59[0][0]']          \n\n conv2d_64 (Conv2D)             (None, 17, 17, 192)  147456      ['mixed6[0][0]']                 \n\n batch_normalization_64 (BatchN  (None, 17, 17, 192)  576        ['conv2d_64[0][0]']              \n ormalization)                                                                                    \n\n activation_64 (Activation)     (None, 17, 17, 192)  0           ['batch_normalization_64[0][0]'] \n\n conv2d_65 (Conv2D)             (None, 17, 17, 192)  258048      ['activation_64[0][0]']          \n\n batch_normalization_65 (BatchN  (None, 17, 17, 192)  576        ['conv2d_65[0][0]']              \n ormalization)                                                                                    \n\n activation_65 (Activation)     (None, 17, 17, 192)  0           ['batch_normalization_65[0][0]'] \n\n conv2d_61 (Conv2D)             (None, 17, 17, 192)  147456      ['mixed6[0][0]']                 \n\n conv2d_66 (Conv2D)             (None, 17, 17, 192)  258048      ['activation_65[0][0]']          \n\n batch_normalization_61 (BatchN  (None, 17, 17, 192)  576        ['conv2d_61[0][0]']              \n ormalization)                                                                                    \n\n batch_normalization_66 (BatchN  (None, 17, 17, 192)  576        ['conv2d_66[0][0]']              \n ormalization)                                                                                    \n\n activation_61 (Activation)     (None, 17, 17, 192)  0           ['batch_normalization_61[0][0]'] \n\n activation_66 (Activation)     (None, 17, 17, 192)  0           ['batch_normalization_66[0][0]'] \n\n conv2d_62 (Conv2D)             (None, 17, 17, 192)  258048      ['activation_61[0][0]']          \n\n conv2d_67 (Conv2D)             (None, 17, 17, 192)  258048      ['activation_66[0][0]']          \n\n batch_normalization_62 (BatchN  (None, 17, 17, 192)  576        ['conv2d_62[0][0]']              \n ormalization)                                                                                    \n\n batch_normalization_67 (BatchN  (None, 17, 17, 192)  576        ['conv2d_67[0][0]']              \n ormalization)                                                                                    \n\n activation_62 (Activation)     (None, 17, 17, 192)  0           ['batch_normalization_62[0][0]'] \n\n activation_67 (Activation)     (None, 17, 17, 192)  0           ['batch_normalization_67[0][0]'] \n\n average_pooling2d_6 (AveragePo  (None, 17, 17, 768)  0          ['mixed6[0][0]']                 \n oling2D)                                                                                         \n\n conv2d_60 (Conv2D)             (None, 17, 17, 192)  147456      ['mixed6[0][0]']                 \n\n conv2d_63 (Conv2D)             (None, 17, 17, 192)  258048      ['activation_62[0][0]']          \n\n conv2d_68 (Conv2D)             (None, 17, 17, 192)  258048      ['activation_67[0][0]']          \n\n conv2d_69 (Conv2D)             (None, 17, 17, 192)  147456      ['average_pooling2d_6[0][0]']    \n\n batch_normalization_60 (BatchN  (None, 17, 17, 192)  576        ['conv2d_60[0][0]']              \n ormalization)                                                                                    \n\n batch_normalization_63 (BatchN  (None, 17, 17, 192)  576        ['conv2d_63[0][0]']              \n ormalization)                                                                                    \n\n batch_normalization_68 (BatchN  (None, 17, 17, 192)  576        ['conv2d_68[0][0]']              \n ormalization)                                                                                    \n\n batch_normalization_69 (BatchN  (None, 17, 17, 192)  576        ['conv2d_69[0][0]']              \n ormalization)                                                                                    \n\n activation_60 (Activation)     (None, 17, 17, 192)  0           ['batch_normalization_60[0][0]'] \n\n activation_63 (Activation)     (None, 17, 17, 192)  0           ['batch_normalization_63[0][0]'] \n\n activation_68 (Activation)     (None, 17, 17, 192)  0           ['batch_normalization_68[0][0]'] \n\n activation_69 (Activation)     (None, 17, 17, 192)  0           ['batch_normalization_69[0][0]'] \n\n mixed7 (Concatenate)           (None, 17, 17, 768)  0           ['activation_60[0][0]',          \n                                                                  'activation_63[0][0]',          \n                                                                  'activation_68[0][0]',          \n                                                                  'activation_69[0][0]']          \n\n conv2d_72 (Conv2D)             (None, 17, 17, 192)  147456      ['mixed7[0][0]']                 \n\n batch_normalization_72 (BatchN  (None, 17, 17, 192)  576        ['conv2d_72[0][0]']              \n ormalization)                                                                                    \n\n activation_72 (Activation)     (None, 17, 17, 192)  0           ['batch_normalization_72[0][0]'] \n\n conv2d_73 (Conv2D)             (None, 17, 17, 192)  258048      ['activation_72[0][0]']          \n\n batch_normalization_73 (BatchN  (None, 17, 17, 192)  576        ['conv2d_73[0][0]']              \n ormalization)                                                                                    \n\n activation_73 (Activation)     (None, 17, 17, 192)  0           ['batch_normalization_73[0][0]'] \n\n conv2d_70 (Conv2D)             (None, 17, 17, 192)  147456      ['mixed7[0][0]']                 \n\n conv2d_74 (Conv2D)             (None, 17, 17, 192)  258048      ['activation_73[0][0]']          \n\n batch_normalization_70 (BatchN  (None, 17, 17, 192)  576        ['conv2d_70[0][0]']              \n ormalization)                                                                                    \n\n batch_normalization_74 (BatchN  (None, 17, 17, 192)  576        ['conv2d_74[0][0]']              \n ormalization)                                                                                    \n\n activation_70 (Activation)     (None, 17, 17, 192)  0           ['batch_normalization_70[0][0]'] \n\n activation_74 (Activation)     (None, 17, 17, 192)  0           ['batch_normalization_74[0][0]'] \n\n conv2d_71 (Conv2D)             (None, 8, 8, 320)    552960      ['activation_70[0][0]']          \n\n conv2d_75 (Conv2D)             (None, 8, 8, 192)    331776      ['activation_74[0][0]']          \n\n batch_normalization_71 (BatchN  (None, 8, 8, 320)   960         ['conv2d_71[0][0]']              \n ormalization)                                                                                    \n\n batch_normalization_75 (BatchN  (None, 8, 8, 192)   576         ['conv2d_75[0][0]']              \n ormalization)                                                                                    \n\n activation_71 (Activation)     (None, 8, 8, 320)    0           ['batch_normalization_71[0][0]'] \n\n activation_75 (Activation)     (None, 8, 8, 192)    0           ['batch_normalization_75[0][0]'] \n\n max_pooling2d_3 (MaxPooling2D)  (None, 8, 8, 768)   0           ['mixed7[0][0]']                 \n\n mixed8 (Concatenate)           (None, 8, 8, 1280)   0           ['activation_71[0][0]',          \n                                                                  'activation_75[0][0]',          \n                                                                  'max_pooling2d_3[0][0]']        \n\n conv2d_80 (Conv2D)             (None, 8, 8, 448)    573440      ['mixed8[0][0]']                 \n\n batch_normalization_80 (BatchN  (None, 8, 8, 448)   1344        ['conv2d_80[0][0]']              \n ormalization)                                                                                    \n\n activation_80 (Activation)     (None, 8, 8, 448)    0           ['batch_normalization_80[0][0]'] \n\n conv2d_77 (Conv2D)             (None, 8, 8, 384)    491520      ['mixed8[0][0]']                 \n\n conv2d_81 (Conv2D)             (None, 8, 8, 384)    1548288     ['activation_80[0][0]']          \n\n batch_normalization_77 (BatchN  (None, 8, 8, 384)   1152        ['conv2d_77[0][0]']              \n ormalization)                                                                                    \n\n batch_normalization_81 (BatchN  (None, 8, 8, 384)   1152        ['conv2d_81[0][0]']              \n ormalization)                                                                                    \n\n activation_77 (Activation)     (None, 8, 8, 384)    0           ['batch_normalization_77[0][0]'] \n\n activation_81 (Activation)     (None, 8, 8, 384)    0           ['batch_normalization_81[0][0]'] \n\n conv2d_78 (Conv2D)             (None, 8, 8, 384)    442368      ['activation_77[0][0]']          \n\n conv2d_79 (Conv2D)             (None, 8, 8, 384)    442368      ['activation_77[0][0]']          \n\n conv2d_82 (Conv2D)             (None, 8, 8, 384)    442368      ['activation_81[0][0]']          \n\n conv2d_83 (Conv2D)             (None, 8, 8, 384)    442368      ['activation_81[0][0]']          \n\n average_pooling2d_7 (AveragePo  (None, 8, 8, 1280)  0           ['mixed8[0][0]']                 \n oling2D)                                                                                         \n\n conv2d_76 (Conv2D)             (None, 8, 8, 320)    409600      ['mixed8[0][0]']                 \n\n batch_normalization_78 (BatchN  (None, 8, 8, 384)   1152        ['conv2d_78[0][0]']              \n ormalization)                                                                                    \n\n batch_normalization_79 (BatchN  (None, 8, 8, 384)   1152        ['conv2d_79[0][0]']              \n ormalization)                                                                                    \n\n batch_normalization_82 (BatchN  (None, 8, 8, 384)   1152        ['conv2d_82[0][0]']              \n ormalization)                                                                                    \n\n batch_normalization_83 (BatchN  (None, 8, 8, 384)   1152        ['conv2d_83[0][0]']              \n ormalization)                                                                                    \n\n conv2d_84 (Conv2D)             (None, 8, 8, 192)    245760      ['average_pooling2d_7[0][0]']    \n\n batch_normalization_76 (BatchN  (None, 8, 8, 320)   960         ['conv2d_76[0][0]']              \n ormalization)                                                                                    \n\n activation_78 (Activation)     (None, 8, 8, 384)    0           ['batch_normalization_78[0][0]'] \n\n activation_79 (Activation)     (None, 8, 8, 384)    0           ['batch_normalization_79[0][0]'] \n\n activation_82 (Activation)     (None, 8, 8, 384)    0           ['batch_normalization_82[0][0]'] \n\n activation_83 (Activation)     (None, 8, 8, 384)    0           ['batch_normalization_83[0][0]'] \n\n batch_normalization_84 (BatchN  (None, 8, 8, 192)   576         ['conv2d_84[0][0]']              \n ormalization)                                                                                    \n\n activation_76 (Activation)     (None, 8, 8, 320)    0           ['batch_normalization_76[0][0]'] \n\n mixed9_0 (Concatenate)         (None, 8, 8, 768)    0           ['activation_78[0][0]',          \n                                                                  'activation_79[0][0]']          \n\n concatenate (Concatenate)      (None, 8, 8, 768)    0           ['activation_82[0][0]',          \n                                                                  'activation_83[0][0]']          \n\n activation_84 (Activation)     (None, 8, 8, 192)    0           ['batch_normalization_84[0][0]'] \n\n mixed9 (Concatenate)           (None, 8, 8, 2048)   0           ['activation_76[0][0]',          \n                                                                  'mixed9_0[0][0]',               \n                                                                  'concatenate[0][0]',            \n                                                                  'activation_84[0][0]']          \n\n conv2d_89 (Conv2D)             (None, 8, 8, 448)    917504      ['mixed9[0][0]']                 \n\n batch_normalization_89 (BatchN  (None, 8, 8, 448)   1344        ['conv2d_89[0][0]']              \n ormalization)                                                                                    \n\n activation_89 (Activation)     (None, 8, 8, 448)    0           ['batch_normalization_89[0][0]'] \n\n conv2d_86 (Conv2D)             (None, 8, 8, 384)    786432      ['mixed9[0][0]']                 \n\n conv2d_90 (Conv2D)             (None, 8, 8, 384)    1548288     ['activation_89[0][0]']          \n\n batch_normalization_86 (BatchN  (None, 8, 8, 384)   1152        ['conv2d_86[0][0]']              \n ormalization)                                                                                    \n\n batch_normalization_90 (BatchN  (None, 8, 8, 384)   1152        ['conv2d_90[0][0]']              \n ormalization)                                                                                    \n\n activation_86 (Activation)     (None, 8, 8, 384)    0           ['batch_normalization_86[0][0]'] \n\n activation_90 (Activation)     (None, 8, 8, 384)    0           ['batch_normalization_90[0][0]'] \n\n conv2d_87 (Conv2D)             (None, 8, 8, 384)    442368      ['activation_86[0][0]']          \n\n conv2d_88 (Conv2D)             (None, 8, 8, 384)    442368      ['activation_86[0][0]']          \n\n conv2d_91 (Conv2D)             (None, 8, 8, 384)    442368      ['activation_90[0][0]']          \n\n conv2d_92 (Conv2D)             (None, 8, 8, 384)    442368      ['activation_90[0][0]']          \n\n average_pooling2d_8 (AveragePo  (None, 8, 8, 2048)  0           ['mixed9[0][0]']                 \n oling2D)                                                                                         \n\n conv2d_85 (Conv2D)             (None, 8, 8, 320)    655360      ['mixed9[0][0]']                 \n\n batch_normalization_87 (BatchN  (None, 8, 8, 384)   1152        ['conv2d_87[0][0]']              \n ormalization)                                                                                    \n\n batch_normalization_88 (BatchN  (None, 8, 8, 384)   1152        ['conv2d_88[0][0]']              \n ormalization)                                                                                    \n\n batch_normalization_91 (BatchN  (None, 8, 8, 384)   1152        ['conv2d_91[0][0]']              \n ormalization)                                                                                    \n\n batch_normalization_92 (BatchN  (None, 8, 8, 384)   1152        ['conv2d_92[0][0]']              \n ormalization)                                                                                    \n\n conv2d_93 (Conv2D)             (None, 8, 8, 192)    393216      ['average_pooling2d_8[0][0]']    \n\n batch_normalization_85 (BatchN  (None, 8, 8, 320)   960         ['conv2d_85[0][0]']              \n ormalization)                                                                                    \n\n activation_87 (Activation)     (None, 8, 8, 384)    0           ['batch_normalization_87[0][0]'] \n\n activation_88 (Activation)     (None, 8, 8, 384)    0           ['batch_normalization_88[0][0]'] \n\n activation_91 (Activation)     (None, 8, 8, 384)    0           ['batch_normalization_91[0][0]'] \n\n activation_92 (Activation)     (None, 8, 8, 384)    0           ['batch_normalization_92[0][0]'] \n\n batch_normalization_93 (BatchN  (None, 8, 8, 192)   576         ['conv2d_93[0][0]']              \n ormalization)                                                                                    \n\n activation_85 (Activation)     (None, 8, 8, 320)    0           ['batch_normalization_85[0][0]'] \n\n mixed9_1 (Concatenate)         (None, 8, 8, 768)    0           ['activation_87[0][0]',          \n                                                                  'activation_88[0][0]']          \n\n concatenate_1 (Concatenate)    (None, 8, 8, 768)    0           ['activation_91[0][0]',          \n                                                                  'activation_92[0][0]']          \n\n activation_93 (Activation)     (None, 8, 8, 192)    0           ['batch_normalization_93[0][0]'] \n\n mixed10 (Concatenate)          (None, 8, 8, 2048)   0           ['activation_85[0][0]',          \n                                                                  'mixed9_1[0][0]',               \n                                                                  'concatenate_1[0][0]',          \n                                                                  'activation_93[0][0]']          \n\n avg_pool (GlobalAveragePooling  (None, 2048)        0           ['mixed10[0][0]']                \n 2D)                                                                                              \n\n predictions (Dense)            (None, 1000)         2049000     ['avg_pool[0][0]']               \n\n==================================================================================================\nTotal params: 23,851,784\nTrainable params: 23,817,352\nNon-trainable params: 34,432\n__________________________________________________________________________________________________\n</code>\n</pre> <p>As you can see, it's a very deep network and compared
…
d(MaxPool2D((2, 2), padding='same'))\n\nmodel.add(Conv2D(256, (3, 3), activation='relu', padding='same'))\n\nmodel.add(Conv2D(64, (3, 3), activation='relu', padding='same'))\nmodel.add(UpSampling2D((2, 2)))\n\nmodel.add(Conv2D(3, (3, 3), activation='sigmoid', padding='same'))\n### END CODE HERE ###\n\nmodel.summary()\n</code></pre> <pre>\n<code>Model: \"sequential\"\n_________________________________________________________________\n Layer (type)                Output Shape              Param #   \n=================================================================\n conv2d (Conv2D)             (None, 32, 32, 64)        1792      \n\n max_pooling2d (MaxPooling2D  (None, 16, 16, 64)       0         \n )                                                               \n\n conv2d_1 (Conv2D)           (None, 16, 16, 128)       73856     \n\n max_pooling2d_1 (MaxPooling  (None, 8, 8, 128)        0         \n 2D)                                                             \n\n conv2d_2 (Conv2D)           (None, 8, 8, 256)         295168    \n\n up_sampling2d (UpSampling2D  (None, 16, 16, 256)      0         \n )                                                               \n\n conv2d_3 (Conv2D)           (None, 16, 16, 128)       295040    \n\n up_sampling2d_1 (UpSampling  (None, 32, 32, 128)      0         \n 2D)                                                             \n\n conv2d_4 (Conv2D)           (None, 32, 32, 64)        73792     \n\n conv2d_5 (Conv2D)           (None, 32, 32, 3)         1731      \n\n=================================================================\nTotal params: 741,379\nTrainable params: 741,379\nNon-trainable params: 0\n_________________________________________________________________\n</code>\n</pre> <pre>\n<code>2023-03-29 12:06:15.794556: I tensorflow/core/platform/cpu_feature_guard.cc:193] This TensorFlow binary is optimized with oneAPI Deep Neural Network Lib
…
